MRSN/checkpoints/MRRN-4.pth (torch, 531417 bytes, 4 tensors)

fc1.weight f4 [128, 1032]
000000 17 05 43 bd cf ba 13 bd 96 69 68 3c 0c 37 c4 bc
       -0.047612276 -0.036066826 0.01418533 -0.02395203
000010 f5 a8 3d bd ca 07 f6 3b c9 16 8a 3c 1e 0b be bd
       -0.046303708 0.0075082527 0.016856568 -0.09279464
000020 20 0c 12 bd 8c 27 35 bd 93 b7 93 3c a1 da 03 be
       -0.035656095 -0.044227168 0.018031871 -0.12876369
000030 de ab a4 bd 9a d0 f0 bd af bd 3a bc 6d b1 aa bd
       -0.080405936 -0.117585376 -0.011397763 -0.083346225
000040 7a ee a3 bd db 12 74 bd 5a 67 74 bd 5d 5e cd bc
       -0.0800447 -0.059588294 -0.059668876 -0.02506941
000050 3c e6 96 bd 13 a7 59 bd 43 44 f9 bc c4 dd ab 3c
       -0.073681325 -0.05313785 -0.030428058 0.02097977
000060 6b f8 39 bd 89 b0 c0 bd a6 d1 b4 bc 08 ae e7 bc
       -0.045402925 -0.094086714 -0.022072624 -0.028281227
000070 16 2f dd bd a6 2c 04 bd 51 19 02 3d 08 16 78 bd
       -0.107999966 -0.032269143 0.031762425 -0.060567886
000080 59 70 8f bd c7 d4 71 bd bc 15 a6 3c 43 2e b8 bd
       -0.070038505 -0.05904081 0.020274036 -0.08993199
000090 93 3e ad bd 5c b2 b8 bb cc ff 45 bd 69 e3 35 bd
       -0.08459201 -0.0056364965 -0.04833965 -0.04440633
0000a0 13 e2 87 bc 28 bb d4 bd e1 f0 ae bd ef 8f 13 3d
       -0.016587293 -0.1038726 -0.08542038 0.036025938
0000b0 38 37 8e bd da e7 f0 3c 0e 56 3b bd d2 31 f4 bc
       -0.06944126 0.02940743 -0.045736365 -0.029808912
0000c0 30 67 80 bd 4b 17 ed bc 6e 40 8a bd ba 19 9f bd
       -0.062696815 -0.028941771 -0.0675057 -0.07768579
0000d0 9a 92 cb bd fc 82 f4 3b b6 b1 07 3d d7 38 9a bd
       -0.099400714 0.0074619036 0.033128463 -0.075303726
0000e0 67 07 c6 bd a0 e0 53 bd 08 4b 7e 3c b6 2a 08 bd
       -0.09669381 -0.05172789 0.0155208185 -0.033243857
0000f0 50 0c 19 bd 0c c8 a4 bd 28 39 c2 bd 72 2d 06 3c
       -0.037365258 -0.080459684 -0.09483558 0.008189546
000100 e8 9f b4 3c 59 25 b9 bd d8 2e 75 bc 92 87 a0 bd
       0.022048905 -0.090403266 -0.014964782 -0.07838358
000110 a9 ac 98 bd 68 38 c1 bd e1 07 78 bd f5 09 5a bd
       -0.07454807 -0.09434587 -0.06055439 -0.053232152
000120 84 49 d1 bd 3a cf 33 bd 2a 71 c5 bd 93 c5 67 bd
       -0.102191 -0.0438988 -0.09640725 -0.056584906
000130 fb a9 dc 3c f2 f0 fc bd ac 2a a8 bd a5 18 ae 3a
       0.026936522 -0.12350644 -0.08211264 0.0013282491
000140 c0 0e aa bd f2 93 ef bd 1b 81 c5 bd 68 35 88 3b
       -0.083035946 -0.1169814 -0.096437655 0.004156757
000150 2f c5 12 bd 30 19 5f bd f6 70 e8 bc a1 50 90 bd
       -0.03583258 -0.05446738 -0.028374176 -0.07046629
000160 62 70 cb bd 43 9b 8e bd 80 fb cf bd f2 f3 e4 bd
       -0.09933545 -0.069632076 -0.10155392 -0.111793414
000170 b5 ea 67 3d 84 c9 c1 bd 6b 1f ae bb 1c ff ff bc
       0.05662032 -0.09462264 -0.005313804 -0.031249575
000180 51 ce 69 bd 42 f1 b6 bd 0c d3 a9 bd 10 63 38 bd
       -0.057081524 -0.08932735 -0.08292207 -0.04501635
000190 2b 13 ed bd 98 d8 fd 3c 1b b8 86 ba b7 59 94 bc
       -0.115759216 0.030987069 -0.0010278256 -0.018109186
0001a0 28 28 3a bd af ca 6c 3c f8 ab 77 bd 5b 2a c5 bc
       -0.045448452 0.01445262 -0.060466737 -0.024068048
0001b0 41 99 5b bc 78 5c 46 bd 6d 71 98 bc 43 7f 3b bd
       -0.013403238 -0.04842803 -0.018608773 -0.045775663
0001c0 a4 4b 51 bd ea 4e 51 bd c1 b2 b7 3c f3 0b ba bd
       -0.051097527 -0.05110065 0.022424104 -0.090843104
0001d0 a3 27 42 3b a4 1f 58 bd 50 d4 83 bd 7e 76 19 bd
       0.0029625676 -0.05276455 -0.0643698 -0.03746652
0001e0 1a 4c 96 bd 30 d5 fc bd a3 aa 1c 3c d6 69 b6 bd
       -0.07338734 -0.1234535 0.009562167 -0.08906905
0001f0 99 66 a7 bd 09 22 2e bd 6c cf af bd bb 3a da 3c
       -0.08173866 -0.042512927 -0.085844845 0.026639333
000200 fe d2 46 bd 9e c7 18 bd e0 a0 b4 bd 7f 89 8d bc
       -0.04854106 -0.037299745 -0.08819747 -0.017277477
000210 96 3c 1d bd 53 c8 2e bd 13 ad 04 3d b1 ec 29 3d
       -0.038387857 -0.042671513 0.03239162 0.041485492
000220 6e 54 37 bd 8b e5 a7 3b b4 17 6e bd de 88 0a 3d
       -0.044758253 0.005123799 -0.058128074 0.033821933
000230 09 0a a3 bd c2 30 cf bd 1c fd 01 be 59 0a 46 3c
       -0.079608984 -0.10116722 -0.1269421 0.012087428
000240 26 d7 7b bd 02 bf 3a bd 91 30 6c bd e7 c0 81 bd
       -0.06148448 -0.045592315 -0.057663504 -0.06335621
000250 17 88 9a bd ae 5d 76 bd 60 2c cb bd b5 95 48 39
       -0.07545488 -0.060147934 -0.09920573 0.00019129257
000260 d1 6a d8 3c 57 0b e9 bc d8 b6 a3 bd 1d 26 5e bc
       0.026418122 -0.02844779 -0.07993859 -0.013558892
000270 c1 46 63 bc d1 38 97 bd f8 e6 27 bd bb bb 9f bc
       -0.0138718495 -0.07383884 -0.040991753 -0.019498697
000280 72 43 2b bd 36 93 cc bd 5d 53 95 bd da ac e3 3c
       -0.041812368 -0.09989016 -0.07291291 0.027792383
000290 31 11 8b bd bf 3d 9a bd 25 a7 ce 3b e1 fc aa bd
       -0.067903884 -0.075313084 0.0063065463 -0.08349014
0002a0 54 b4 69 bd 12 14 43 bd f8 72 7d bd 88 82 79 bd
       -0.05705674 -0.047626562 -0.06187722 -0.0609155
0002b0 24 40 df 3c d2 eb 51 bd d6 d4 c6 bc 97 b4 89 bd
       0.027252264 -0.051250286 -0.02427141 -0.06723898
0002c0 3d b6 9e bc 08 d9 73 bd 5f b3 a4 3a b0 49 6a bd
       -0.019374007 -0.05953315 0.0012565664 -0.05719918
0002d0 70 28 9c bd 0c e5 9d bd f4 9e 79 3c 8b 68 0c 3c
       -0.076249 -0.07709703 0.015235651 0.008569847
0002e0 81 a6 26 bd 02 d4 93 bd 2f 1e ec bc f6 d6 81 3d
       -0.040686134 -0.07218172 -0.028822986 0.06339829
0002f0 dd 53 0e bd 52 d6 5b bd ff d4 a3 bd 38 a6 c1 bd
       -0.034747947 -0.05367119 -0.0799961 -0.09455532
000300 04 7c 02 bc 28 e6 a2 3c 00 c4 0f bd 35 fb 46 3d
       -0.007964138 0.019885138 -0.03509903 0.048579413
000310 81 b6 86 bd cc 04 75 bd 52 a2 81 bd 70 69 fe bc
       -0.065777786 -0.059819028 -0.06329788 -0.031056136
000320 68 af 97 bc 35 be db bd 23 c8 6d bd 57 fe 29 bd
       -0.018516257 -0.107296385 -0.058052193 -0.041502323
000330 f2 f0 40 bd 21 a0 1f bc e6 44 c3 bd 52 c6 8e bd
       -0.047104783 -0.009742768 -0.09534626 -0.0697142
000340 56 84 02 3d 8a c3 81 bd 66 9c be bd d6 bd ee bd
       0.031864487 -0.06336124 -0.093071744 -0.11657302
000350 9e 95 08 3c da 37 70 bd c4 37 89 bd a2 54 e6 bc
       0.008336453 -0.058647014 -0.067000896 -0.028116528
000360 3f 55 cf bd f2 ba cb bd 0e 4a 1d bd e3 f3 83 bd
       -0.10123681 -0.09947766 -0.038400702 -0.06443002
000370 87 68 a2 bd 52 63 8a 3c 9e 73 ab bd 08 7f 99 3c
       -0.07930093 0.016893063 -0.083716616 0.018737331
000380 b7 44 56 bd f0 7a 85 bd f2 98 86 bd 56 f0 5d bd
       -0.052311625 -0.06517589 -0.06572141 -0.05418428
000390 72 69 8b bc db 51 d3 bd d2 c4 7b 3c da 3f 20 bd
       -0.017018054 -0.10318347 0.01536675 -0.039123394
0003a0 cb d4 01 bd 91 5a 8c bd ae 41 38 bd 59 09 5a bd
       -0.031697076 -0.06853212 -0.044984512 -0.05323157
0003b0 12 b3 bc 3b 2b 89 d3 3c 8e d2 85 bd 2d 40 c7 3c
       0.0057586515 0.025822243 -0.06534301 0.024322594
0003c0 f6 dd e6 bc 1f 8b ac bc 72 fe 89 bd c4 84 1e 3d
       -0.028182011 -0.021062432 -0.06737985 0.038700834
0003d0 17 fd c8 bd 1b 8a 50 b9 45 d5 51 bd 0d 99 17 bd
       -0.09813898 -0.00019887874 -0.05122878 -0.037011195
0003e0 bc bf 78 bd 10 54 a0 bd 07 be b9 bd 26 1a 07 3d
       -0.060729727 -0.07828534 -0.09069448 0.03298392
0003f0 05 a2 c1 bd 86 cb 87 bd 75 c0 66 bd f9 cc cd bd
       -0.09454731 -0.06630616 -0.056335885 -0.10048861

fc1.bias f4 [128]
000000 db b1 bc bd 69 78 43 3e b5 cd 22 bd 43 42 91 3e
       -0.09213611 0.19088902 -0.03974696 0.28370866
000010 10 47 4a 3e ff d9 1f 3e 07 a8 48 bd 84 f7 72 3c
       0.1975367 0.15610503 -0.04898837 0.01482952
000020 ad be 7e 3e 75 45 59 bd 2a 77 17 3e 87 c1 9d 3e
       0.24877425 -0.053044755 0.14791551 0.30811712
000030 75 f9 30 3e 9c af 6e be 85 4f 3e bd e2 cd a3 bd
       0.1728266 -0.23309177 -0.046462554 -0.079982534
000040 b5 1d d4 bc 53 76 03 bd a8 7b 51 3e 3c 1f 43 3e
       -0.025893072 -0.032095265 0.20457327 0.19054884
000050 a9 03 ab bd e1 8a 66 bd 52 58 04 3e ab c8 49 bd
       -0.083503075 -0.05628479 0.12924317 -0.049263638
000060 ef bf 93 bd a0 2c 3b 3d b3 ad 0f bc 55 71 b8 bd
       -0.07214343 0.045696855 -0.00876944 -0.09005991
000070 4a 5c f4 3c c4 63 22 bd 60 44 f7 3d ea f6 b1 bd
       0.029829163 -0.039645925 0.12073588 -0.08689673
000080 f0 d3 12 3d 39 e3 98 3d f4 2f fd bc 3f 83 1f bd
       0.03584665 0.07465214 -0.030906655 -0.038943525
000090 05 38 2d 3e 18 6f 2c bd ca e5 b1 3d 11 6f 5e bd
       0.16915901 -0.042098135 0.08686407 -0.05430514
0000a0 ba fc 51 bd a4 4e 97 bd 42 4f 40 3e ed a0 a5 bd
       -0.05126641 -0.073880464 0.18780234 -0.08087335
0000b0 a0 96 51 3e 18 db 0e bd 58 ad b1 3d d4 9a 82 bd
       0.20467615 -0.034876913 0.08675641 -0.06377187
0000c0 50 7d 45 3d 78 7e 22 bd 7c 6d 6e bd 6b 59 0e 3e
       0.04821521 -0.03967139 -0.05820988 0.13901298
0000d0 a5 90 42 3e b5 c5 b5 bd ee eb 6e 3d 24 ef 62 bd
       0.1900049 -0.088756 0.05833047 -0.055403844
0000e0 73 a8 87 3e a9 62 66 bd dd b2 be ba 73 43 7c bd
       0.26495704 -0.056246433 -0.0014549155 -0.061587762
0000f0 b8 9f c1 3c fd 7c c3 3e 87 59 b3 bd d3 3e 02 3e
       0.02363573 0.38181296 -0.0875731 0.12719278
000100 d4 83 d2 3d 6c 0e 78 bd 48 76 94 bd b4 60 00 3e
       0.102790505 -0.06056063 -0.07249123 0.1253689
000110 c5 f8 5d bd 3b 0a be bc 2d 01 3f bd 16 50 5e bd
       -0.054192323 -0.023198238 -0.04663198 -0.054275595
000120 65 8b aa bd 90 08 b5 3d 4e df 02 bd ec 39 63 3e
       -0.08327369 0.08839524 -0.03195124 0.22190064
000130 06 67 ae bc 74 8d 8a 3e 5e a7 5c bd 5a 60 bb 3e
       -0.02128936 0.27061045 -0.05387055 0.36596948
000140 42 64 ad bd a9 0e ac bd 3d e5 8d bd 97 29 cd 3b
       -0.08466388 -0.08401234 -0.06928489 0.0062610614
000150 ac 14 83 bd 7c 9f 06 3d da 33 0e bd 88 94 91 bd
       -0.06400427 0.03286694 -0.03471742 -0.07108408
000160 71 a2 59 bd bc 2e 59 bd e7 a7 60 3d 31 a6 db bd
       -0.05313343 -0.053023085 0.054847624 -0.10725058
000170 54 52 5f bd c3 1e 99 bd af 91 a0 bd 1b e7 9e 3e
       -0.054521874 -0.074765705 -0.07840287 0.31035694
000180 0b b3 01 bd 0a aa ea 3d df 10 ba bd 7f c9 74 bd
       -0.03166489 0.114582136 -0.09085249 -0.059762474
000190 16 ab 9a bd 05 88 08 3e d6 9c ac bd 7a 27 be 3d
       -0.07552163 0.13333137 -0.084283516 0.09284873
0001a0 f8 b0 4d bd 51 53 4f bd 2d 4e a3 bd 8f 4b 88 bd
       -0.0502176 -0.050616566 -0.07973895 -0.06655037
0001b0 51 31 41 3e ec d8 24 bd 54 a2 88 bd 37 0d bc bc
       0.18866469 -0.040245935 -0.06671587 -0.02295552
0001c0 de 60 7a bd ec ef 7f 3d de 20 7c bd 96 f8 f7 3c
       -0.061127536 0.062484667 -0.061554782 0.030269902
0001d0 d6 f0 00 bd 08 a3 6f bd e3 e9 9e 3d c5 04 9d bd
       -0.03147968 -0.058505088 0.07759454 -0.07666925
0001e0 96 15 30 bd a3 c8 d2 bd 23 dd 82 3e ea fe b8 bd
       -0.042989336 -0.10292175 0.2555934 -0.09032996
0001f0 cc ee 29 3d c6 68 84 bd 5e 78 bb bc 95 1e 8b bd
       0.0414875 -0.064652964 -0.022884544 -0.067929424

fc2.weight f4 [2, 128]
000000 f7 3c 86 bb 30 2c 89 3d 61 6f cf 3c 6a 69 c8 3c
       -0.004096623 0.06697881 0.025321664 0.024464328
000010 78 69 49 3d 6e 7e 7c 3d 13 40 1b bb c1 b2 42 3e
       0.04917285 0.06164401 -0.0023689314 0.19013502
000020 33 de 0e 3d 82 e7 0e bc 86 ce 87 3d 0a cb e4 3d
       0.034879874 -0.008722188 0.06631188 0.11171539
000030 eb 5b c4 3d 3f 55 8a be ad 26 6b 3d 08 3b 7a bc
       0.095878445 -0.27018163 0.05740993 -0.015272863
000040 9d ce 34 3d 69 50 d1 bc 5e 50 8b 3e f1 f4 49 3d
       0.044142354 -0.025551038 0.27209753 0.04930586
000050 6a 0e 40 3d 49 39 46 ba 3f d6 06 3d b8 e6 87 bc
       0.046888746 -0.0007561637 0.032919165 -0.016589507
000060 78 6b 0f 3d 86 78 b7 3d 8c 4b 5e 3d 82 9e d5 bc
       0.0350146 0.08958535 0.054271266 -0.026076559
000070 c0 51 51 3c 94 ed a1 3d 2b ab 39 3d 6e 3a af bc
       0.012775838 0.079066426 0.045329254 -0.021390166
000080 38 e3 26 3e 58 36 b5 3d 54 a0 47 3d df 94 8e 3c
       0.16297615 0.08848256 0.048736885 0.017404972
000090 c9 2d 33 3e 52 89 83 bb bb b9 a7 3d 6c 60 bc 3c
       0.17497934 -0.0040141726 0.08189722 0.022995196
0000a0 73 38 03 bc dc c9 97 bc b1 0b 34 be bb e3 d7 bc
       -0.008009064 -0.018528871 -0.17582585 -0.026353708
0000b0 8c b6 50 3e c7 b5 df 3c f7 fb 06 3e e1 68 8f 3c
       0.20382136 0.027308358 0.13182054 0.017506065
0000c0 7a f8 44 3d e5 f5 1e 3e 34 8a 6c bc 95 79 8c 3d
       0.04808853 0.15523489 -0.014437247 0.068591274
0000d0 9c 63 af 3d 28 d8 6b 3d ec 6b 27 be e9 d6 63 3d
       0.08563921 0.05757919 -0.16349763 0.055624876
0000e0 20 30 94 3e 99 51 54 3c cc 1b 56 3d 67 9f 9e 3d
       0.28942966 0.0129589075 0.052272603 0.07745247
0000f0 13 c6 e2 3c a5 ff 1b 3e 6b ee 44 3c d0 3e 6a 3d
       0.02768234 0.1523424 0.012019734 0.05718881
000100 86 25 58 3b 1d 00 83 3b 8c c4 6d 3d 49 51 82 3d
       0.003298135 0.0039978162 0.05804877 0.0636316
000110 da e6 e2 bc d6 bd 78 3c e3 97 d4 3c db c0 ad bb
       -0.02769797 0.015181979 0.025951331 -0.005302531
000120 6b cf 70 3d ff 03 b5 3d 08 34 d5 ba 7f f0 45 3e
       0.05879156 0.08838653 -0.0016266117 0.19330023
000130 24 45 83 3c a9 a0 9e 3e 18 a5 21 bb 91 f5 78 3d
       0.01602418 0.3098195 -0.0024665054 0.060781065
000140 03 46 cb bc d0 82 4b 3d cd 46 d6 3c a7 80 2a 3d
       -0.024813658 0.0496853 0.026156807 0.0416266
000150 1a c5 72 3d 6f b8 ef bb 24 01 09 3c a4 73 09 3d
       0.059270002 -0.0073156874 0.008362088 0.03355755
000160 8d 01 4e 3d ce e9 47 3c 84 5e ed 3c 69 e3 5f bd
       0.050294448 0.0122017395 0.028975733 -0.054660235
000170 17 91 ad 3c 5c d3 e1 bc 82 bd ac 3a 84 02 52 3e
       0.021187348 -0.027566604 0.0013179036 0.20508772
000180 27 93 c1 3b be 28 17 3d 90 2e a9 bc a1 25 d5 3c
       0.0059074345 0.03690409 -0.020652086 0.02601892
000190 0b a9 56 3d d4 0c b1 bb 25 df 3d 3c 35 66 1f bd
       0.052407306 -0.0054031406 0.011588846 -0.03891583
0001a0 b7 65 27 3d 02 99 d5 3b 7f e9 1b 3d 45 5a bf 3c
       0.040868487 0.006518484 0.038064476 0.023358474
0001b0 7e ac 36 3d 53 75 a3 bc 72 52 5a 3d 63 99 46 bd
       0.044598095 -0.019953405 0.053301282 -0.048486125
0001c0 a2 19 86 3d e6 6b 44 3d 3e c4 7d b8 08 78 1a 3c
       0.06547858 0.047954462 -6.0502665e-05 0.009428032
0001d0 d2 73 0f 3d af 5a 00 3d 8e c1 80 3d 9e 25 bd bc
       0.035022564 0.031336483 0.062869176 -0.023089226
0001e0 ac 60 9f 3c c3 86 9c 3e 16 c7 99 3c d1 19 da 3c
       0.019455276 0.30571565 0.01877169 0.026623638
0001f0 d9 e2 28 b9 42 11 a2 bc cd f4 a5 3b aa d1 0e 3e
       -0.00016106236 -0.01978362 0.005064583 0.13947168
000200 cd 75 90 3c fe e5 27 3d e9 7b 14 3c de ec 05 3d
       0.017634297 0.040990822 0.009062746 0.032696597
000210 60 1c 2a 3c 2f a0 05 bc fb 56 07 3d d4 67 21 bd
       0.010382742 -0.0081558665 0.033041935 -0.03940566
000220 04 98 8c 3c 0e ae cd 3d 1e 6c a7 3c 1c 4c d8 3c
       0.01716233 0.10042964 0.020437296 0.02640348
000230 5e 60 df 3a fa ea 39 3d cc 60 2e 3d 9a 1a 1a 3d
       0.001704227 0.045390107 0.04257278 0.037623025
000240 74 68 5a bd f9 17 48 bd 56 6c 20 3d 10 18 4b 3b
       -0.05332227 -0.048850987 0.039165817 0.0030989684
000250 88 b6 e1 3c 3a e9 9a 3d 4e 4e 19 3b e0 17 89 3c
       0.027552858 0.07564016 0.002339262 0.016735017
000260 f3 13 c3 3d 9d 17 3d bd a3 de 1f 3c 11 b3 e3 3c
       0.095252894 -0.046165098 0.009757671 0.027795346
000270 23 e6 32 bc 54 a6 bb bd b6 67 ec 3c 18 76 8f bd
       -0.010919127 -0.09162584 0.028858047 -0.070049465
000280 01 1b a5 bc e8 61 29 3c c4 b8 a7 3d ea ac b4 3b
       -0.020154478 0.010338284 0.08189538 0.005513777
000290 6b 76 5a 3d 0d b4 c3 bb b5 c7 fd bc d6 ed 08 3c
       0.05333559 -0.0059723915 -0.030979017 0.008357486
0002a0 17 59 df 3d 5f 7c 88 3c 6b 1f df 3d ac b8 3c 3d
       0.109056644 0.016660867 0.108946644 0.046074554
0002b0 5e 42 30 bb 6d b8 9f 3c 8e 44 4e 3d af f7 6f 3d
       -0.0026895027 0.01949712 0.050358348 0.05858582
0002c0 42 b4 4f bc 60 fc 83 ba 46 11 e4 ba 17 4d a2 bb
       -0.012677254 -0.001006972 -0.0017400167 -0.0049530375
0002d0 c1 2c 7b 3c c9 0c 58 bc b3 df 2f 3e 0f c2 98 bc
       0.015330494 -0.013186642 0.17175178 -0.018647222
0002e0 80 67 d2 bb df b9 c5 3d 16 30 e6 3a 65 1e cd bd
       -0.0064210296 0.09654593 0.0017561938 -0.10015563
0002f0 93 28 87 bc 04 9b 9c 3d 40 74 87 3c 40 ef c0 bb
       -0.01649884 0.076467544 0.016534925 -0.005887896
000300 29 20 f2 3c e4 c5 86 bc 13 d5 81 3d e8 8b cf bb
       0.02955635 -0.016451783 0.06339469 -0.006333817
000310 26 ea 9e 3d 37 43 a9 bd 70 62 16 3e 86 eb 67 3c
       0.07759504 -0.08264773 0.14685988 0.014155274
000320 33 9a 42 3c 1e d5 2f bd 0c d4 a6 3c 3a 16 a9 bc
       0.011877584 -0.042927854 0.020364784 -0.020640481
000330 e4 cb 97 3c b6 6a 7e bc 58 89 49 bc 1c 15 d3 3d
       0.01852984 -0.015528372 -0.012300812 0.10306761
000340 e2 78 72 bd ff 5a df 3c 1c 08 15 3d 7d 33 67 3d
       -0.059197314 0.02726507 0.036384687 0.056445587
000350 bd 4c a5 bc d1 a1 41 3e 16 a0 b4 3c a4 c5 da bc
       -0.020178193 0.18909384 0.022048991 -0.02670557
000360 79 94 a8 3c a9 fa 81 3d 7b de 8f 3b a9 5d d7 3d
       0.02057861 0.06346638 0.0043905354 0.10515911
000370 cb a7 9b 3d 43 59 fb ba ce 5e 9f bb 2b 0c 7d 3b
       0.07600363 -0.0019176382 -0.0048635965 0.003861199
000380 b8 b2 bc 3c 93 94 86 3b f5 8c 90 bd e6 7d 3e ba
       0.023034438 0.004107067 -0.070581354 -0.0007266685
000390 10 9e a4 bc 1e b4 35 3e 54 b1 a4 3c aa 7d 12 3e
       -0.020094901 0.1774449 0.020104088 0.1430575
0003a0 0d 1b 97 3c a1 1d e3 3d 1c c6 1c 3c fd 01 fd bd
       0.018445516 0.11089636 0.009568717 -0.12353895
0003b0 49 47 8c 3b ef d3 63 3b af fc d6 3c 50 4f 59 3c
       0.004280959 0.0034763773 0.026243536 0.0132635385
0003c0 c7 7e f4 bd 0c 1f 1a bc d9 d2 e1 bb f0 f0 45 3d
       -0.11938243 -0.009406816 -0.00689159 0.04832548
0003d0 75 e3 a4 3d 4c df b2 bb 0d 17 77 bc 64 3c a7 3d
       0.080511965 -0.005458748 -0.015081179 0.081658155
0003e0 e1 f5 ad 3d 73 e5 cb 3c 4c 55 a5 3c de 23 13 3d
       0.08494163 0.024889683 0.020182274 0.035922877
0003f0 fb e7 19 bd 93 0a 98 3c 1d cc 1e bb b6 6f c8 bd
       -0.03757475 0.01855973 -0.0024230548 -0.09786932

fc2.bias f4 [2]
000000 ba 14 09 3f c2 28 3b 3f
       0.5354725 0.73109066
