MRSN/checkpoints/MRRN-1.pth (torch, 531417 bytes, 4 tensors)

fc1.weight f4 [128, 1032]
00000000: 5248 89bd dbc6 37be 3f92 c6bd d975 c4bd
00000010: d680 b4bd e15f c8bc 39f0 bbbd 0b9d a1bd
00000020: 4bbc 22be d4bd 3f3d d8ce d2bb 60ae da3c
00000030: 0450 1fbd 54a4 55bd 8a89 383e d99d 563c
00000040: 4386 08be 8493 1bbe 2d42 a5bd 2883 b8bd
00000050: b373 2fbd 1cdf 87bd 3579 67bd f850 5fbe
00000060: 5dc2 d3bd b6f2 35be b678 b0bd 26d2 743e
00000070: ade1 acbd 9aa7 91bd 7a21 9bbe c440 5c3e
00000080: 1e88 bbbd cbe6 4dbd 4567 97bd d732 c6bd
00000090: a9dc 8a3e 33fd 45bd 9cf2 10be 355e 1abe
000000a0: f8f6 46be 35b0 15bd a82c e13e a597 7e3e
000000b0: 110c 20bd 811a 11be 5ddd 52be 20cc 6b3e
000000c0: 933d f93d c8a1 92bc a15f b1bd 05d3 71be
000000d0: 6673 933c 6686 debd 651f 00be ace9 7ebe
000000e0: 18c6 8e3d 59f7 2dbe 1fa7 8abd 7874 1dbe
000000f0: 9eb5 f33d 6604 80be 617b a3bd 2054 fcbd
00000100: 3e48 cdbc 5899 b1bd cbdf 10be d960 05be
00000110: 06c5 12be 899e d3bc 7a9a 0dbe 5625 d4bd
00000120: 468e b6bd 339d e7bd c6b6 92bd 9b8f 3dbe
00000130: 2de5 8ebe 70b9 1ebd cdcb 3abd f360 b4bd
00000140: 963c 9ebe 60bb 8dbd ae94 68bd 9f75 efbd
00000150: 2f42 6ebd 2157 4abd 7cd2 00bd 0de2 e73b
00000160: 31c9 91bc 752c bd38 0153 a93d 84d9 983d
00000170: 3d46 38be a0cb 3abe 858b 18be ad0e 7c3d
00000180: 1955 9d3a 503f 21be 0b16 843e 4269 9d3c
00000190: c8a6 f1bc 8455 a73d 416b 90bd 024a c0bd
000001a0: 2ec1 75bd 20ac c8bd ca41 b9bd 9a18 bfbd
000001b0: d6c5 46be e712 8ebe 767e a5bc 5e24 d5bb
000001c0: 4cf3 493e f5cb c33d 53e3 05bf 52e6 c33d
000001d0: d116 14be 5550 82bc 6270 5dbe 2a8c 973d
000001e0: 03bc 833d 733f 18bd 5794 e5bd 5ce0 cbbd
000001f0: cb83 a63d f874 a7bd ab14 9fbd 41bc b6bb
00000200: 3383 babc 42e1 2c3d 6618 b5bd a4fe 3bbd
00000210: aba7 cebd 69d6 2e3d 9b52 4cbd 19c8 d2bd
00000220: edda 073d c563 49bd e07b 113e 07e3 c13e
00000230: 90d3 a6bc 18cc 3cbd 7368 eb3b cd8a b4bd
00000240: b098 293c b2d3 2bbe 328b 2cbd 9b51 043b
00000250: 4ede 013e 1453 10bd 7aa0 ae3d 5669 923d
00000260: 2d62 62be 6fe5 993c 9c1c 25be 75f6 5a3d
00000270: 2d47 8f3e ef4d 12bd c8b9 c93a 3a9b ea37
00000280: ab96 393e 4cfb 853d 08af 7dbd 85b8 133d
00000290: bb72 76bd 9222 653e bc9c 63bd 1f6e 53be
000002a0: 7a2a 81bd 82d7 04be 3aec 55bb 7289 eb3e
000002b0: 4135 ed3d 9c83 cbbd b649 57bd 0bc5 87be
000002c0: 7d7e 9c3e 0983 993d d6d3 8f3c e6a7 9ebd
000002d0: 4610 a13c f568 f13c e0a6 3fbe e961 5cbc
000002e0: 1ea8 34be 7235 863d a768 2fb8 0e65 41bd
000002f0: 5360 ccbd 5f93 b13c a8e0 30be 0bbf 09be
00000300: 0574 21bd 39ad 183e d331 073d 9a52 3fbe
00000310: 3648 c7bd be98 8cbd 371f 9abd 7062 073b
00000320: a2e1 e53c 52a0 49bd 775a 8cbb 8e2f 933d
00000330: 2410 c2bc 1156 ecbd 61cb 9bbd c070 7dbd
00000340: 82c1 1abe 2546 8dbe cddc 6abd c985 86bd
00000350: ba77 62bd cc0e babc cd91 ba3d 5270 ad3d
00000360: 0abc 6ebc b8f5 38bc b8f4 c83a 0c09 703e
00000370: 2e24 9c3d cf38 4ebe 7ee5 aebd cb14 88bd
00000380: 9c68 b03d ca7f c13a 392c 2c3d 4428 803e
00000390: 6342 d93c fce9 1d3d 75d9 793e a88a b03c
000003a0: 0a76 1b3d 3e21 eb3c be2b 8a3a a413 813d
000003b0: 87c7 7bbe 1a7c 16be 9484 aebe db3e 8f3c
000003c0: 72e5 ad3d 5742 873e 81c1 d23c 8e28 1cbf
000003d0: f8f5 97bd 079a 31bd d11f 83bc d2ab 39bd
000003e0: 8f9c 1c3e 2458 273e 4af0 23bd 3654 f9bd
000003f0: 97ab 34bd bc52 e53d 9549 2bbd 5197 a8bb
-0.06703247 -0.17946951 -0.09695863 -0.0959279 -0.08813636 -0.024459781 -0.09176678 -0.07891282
-0.1589214 0.046811894 -0.006433349 0.026694477 -0.03889467 -0.05215867 0.18021217 0.013099157
-0.13332467 -0.15192991 -0.08069263 -0.09009391 -0.04283495 -0.066343516 -0.056512076 -0.21808231
-0.10339806 -0.17768368 -0.08616774 0.2390829 -0.08441482 -0.071120456 -0.30298978 0.21509081
-0.09156822 -0.05026893 -0.07392744 -0.09677666 0.27121475 -0.048337173 -0.14155048 -0.15075
-0.19430149 -0.036544997 0.43979383 0.24862535 -0.039074007 -0.14170267 -0.20592256 0.23027086
0.121699475 -0.017899409 -0.08660818 -0.23615654 0.017999362 -0.10865478 -0.12511976 -0.24893826
0.06971377 -0.16988887 -0.06770157 -0.1537646 0.11899875 -0.25003356 -0.07982517 -0.12320733
-0.025058862 -0.08671826 -0.1414787 -0.13025226 -0.14332971 -0.025832431 -0.1382846 -0.10358684
-0.08913855 -0.1130928 -0.071637675 -0.18511812 -0.27909222 -0.038751066 -0.045604516 -0.08807554
-0.30905598 -0.069205046 -0.056782417 -0.11692356 -0.058168586 -0.0493995 -0.031450734 0.007076508
-0.01779613 9.020503e-05 0.08267785 0.07463363 -0.17995544 -0.1824174 -0.14896972 0.061537433
0.001200351 -0.15746808 0.25798067 0.01921523 -0.029498473 0.08170608 -0.07051707 -0.09389116
-0.059998684 -0.09798455 -0.090457514 -0.09330864 -0.19411406 -0.27748796 -0.020201903 -0.0065045794
0.19721717 0.09560386 -0.52299994 0.095654145 -0.14461829 -0.015907446 -0.21624902 0.07399781
0.06432345 -0.037169885 -0.11209934 -0.099549025 0.08130606 -0.08176607 -0.07767614 -0.005576641
-0.022767639 0.04220701 -0.08842544 -0.04589714 -0.10090574 0.042684946 -0.049883466 -0.10292072
0.03316777 -0.049167413 0.14207411 0.3786852 -0.020364553 -0.046093076 0.007184082 -0.08815537
0.010351345 -0.16779974 -0.042124934 0.0020190242 0.12682459 -0.03523548 0.08526702 0.071489975
-0.22107764 0.01878616 -0.16124195 0.053457696 0.2798399 -0.035718855 0.001539045 2.7967257e-05
0.18123882 0.06542072 -0.0619345 0.036064643 -0.06016801 0.22376469 -0.055569395 -0.20647477
-0.0630693 -0.12972835 -0.0032642023 0.460033 0.11582423 -0.09937212 -0.05256053 -0.2651752
0.30565253 0.07495696 0.017557066 -0.07746868 0.01966108 0.029468993 -0.18716002 -0.013451078
-0.17642257 0.06553163 -4.1820716e-05 -0.047215514 -0.0997931 0.021676717 -0.172732 -0.13451783
-0.039417285 0.14909829 0.0330065 -0.18683854 -0.0973057 -0.06865071 -0.07525485 0.0020658039
0.028061692 -0.04922516 -0.004283245 0.07186805 -0.023689337 -0.11539853 -0.07607151 -0.061875105
-0.1511288 -0.2759258 -0.05733948 -0.06568486 -0.05528996 -0.022712134 0.091098405 0.08468689
-0.014571199 -0.011289053 0.0015331721 0.23440951 0.07624088 -0.20138858 -0.08539866 -0.06644591
0.08613703 0.0014762816 0.04203436 0.2503072 0.026520913 0.038553223 0.2439936 0.021550491
0.037954368 0.028702375 0.0010541601 0.06302574 -0.24587832 -0.14695778 -0.34085524 0.017486027
0.08491029 0.264178 0.025727035 -0.6099938 -0.07419962 -0.043359783 -0.016006382 -0.045329876
0.15294097 0.16342217 -0.04002408 -0.12174265 -0.044108953 0.11197421 -0.04181822 -0.0051449914

fc1.bias f4 [128]
00000000: 5000 8abd 76a7 28bd 6182 aa3d 9eca 48bd
00000010: 25fb 68bd bf77 22bd 3578 4f3c 2b76 493e
00000020: f797 afbd 2e8a 23bd 7e9c 13bd 9139 a0bd
00000030: 5f7b cfba 4759 75bd f262 15bd 3028 81bd
00000040: c50d 8abd ebc8 ffbc 6d7b 9c3c e92d 763d
00000050: 8521 55bd 28c8 fbbc d36f 9fbd 4842 adbd
00000060: 3fad 86bd a8ef a1bd cc35 d33d 6ba9 babd
00000070: e2c0 4fbc 5c91 62bc 5f7a 0dbd 2c26 9ebb
00000080: 6c33 67bd 872c d5bc 9b00 a13d 953c e6bc
00000090: 4179 1e3e acfe 4fbe 6cbd ffbc ae8e b0bd
000000a0: 3305 59bd 3d52 a9bd 0554 333d 2f33 40bb
000000b0: 785c 913e 694a 15bd cf24 bd3d 06bb de3c
000000c0: d279 36bd 4425 753e bb6d 17bd 37d8 9bba
000000d0: 72cc f7bc 64f3 25bd 5656 bfbc 46d8 13bd
000000e0: 39aa 663e d262 b9bd af1a 1dbc 34ce 77bd
000000f0: a12c a23d 8be8 6dbd 9ba7 ae3c ce8e 47bd
00000100: 7a77 95bd a04b acbd 0fd3 18be 8878 9fbd
00000110: 3479 21bd b164 b0bd 9933 6bbd bc9f ae3c
00000120: b3ce babc 7f20 123e d9d9 aabd a00c 86bd
00000130: 6892 0abd a6e2 d33d a40a 5dbe 183d 913b
00000140: 6417 0abd c0f1 0cbd 644d 163d a8a1 0fbd
00000150: 0829 52bd ad2c adbd ba78 90bd 1daa 0a3d
00000160: 0c42 1dbd 3903 03bc c6a0 54bd 87e0 94bd
00000170: 985d 92bd 78f6 0abd e4a1 b6bd 3681 ed3c
00000180: 8141 8fbd 3ceb 833c 026d adbd f234 9bbd
00000190: fdef 3abd e356 14bd 687b 62bd bf4e f1bc
000001a0: d6a2 7b3d 8b84 a83d 8d20 1fbd 5f35 93bc
000001b0: 67af 2cbd 4288 a9bd 43f2 43bd 402d 45bd
000001c0: 88da 80bd 3301 f53c 4092 43bd f928 213e
000001d0: af27 af3c b9bb f93c 2d58 00bd b341 ad3c
000001e0: 5366 f2bc 7fe1 49bd 38b2 573d 410b 85bd
000001f0: aa87 823c 1d3f 6bbc b5ed 68bd d2e0 f9bc
-0.06738341 -0.04117533 0.08325649 -0.049021356 -0.056880135 -0.03966498 0.012662937 0.19673984
-0.08573907 -0.0399267 -0.036037914 -0.0782348 -0.0015829614 -0.059899595 -0.036471315 -0.06306493
-0.067409076 -0.031223735 0.019101823 0.060102377 -0.05203392 -0.03073509 -0.07785001 -0.08459908
-0.06576013 -0.07907039 0.10312995 -0.09114345 -0.012680264 -0.013828602 -0.03454053 -0.004826328
-0.056445524 -0.026022209 0.078614436 -0.02810506 0.15475942 -0.20311993 -0.031218253 -0.08620964
-0.052983474 -0.08267639 0.0437813 -0.0029327383 0.2839086 -0.036447916 0.09235536 0.02718879
-0.04454977 0.23939997 -0.03696988 -0.0011889999 -0.030248854 -0.04051532 -0.023356598 -0.036094926
0.22525872 -0.090520516 -0.009588881 -0.060499385 0.079186685 -0.0580831 0.021320155 -0.048720174
-0.07298179 -0.08412862 -0.14924262 -0.077866614 -0.03942223 -0.08612955 -0.057422254 0.021316402
-0.02280364 0.14270209 -0.083423324 -0.06545377 -0.03383103 0.10345964 -0.2158609 0.004432332
-0.033713713 -0.03441024 0.0366949 -0.035066277 -0.05130866 -0.08455787 -0.07054277 0.03385364
-0.038393065 -0.007996374 -0.051911138 -0.07269388 -0.07146758 -0.033926457 -0.08917597 0.028992277
-0.06994916 0.01610338 -0.08468057 -0.07578458 -0.045639027 -0.036215674 -0.05529347 -0.029456494
0.06143459 0.082284056 -0.038849402 -0.017969785 -0.042159464 -0.08277942 -0.04783846 -0.048138857
-0.062916815 0.029907798 -0.047746897 0.15738286 0.021381227 0.030485021 -0.03133409 0.021149492
-0.029589808 -0.049287315 0.052660197 -0.06496287 0.01593383 -0.014358309 -0.05686732 -0.03050271

fc2.weight f4 [2, 128]
00000000: 9f84 6b3e 217f d53b 721b a23d f464 81bb
00000010: 2d73 b5bb 32b6 423d 3544 ac3d 6798 b63e
00000020: 42f3 663d 2ec7 9abc 813b 21bd 15da 7dbb
00000030: dbac 813c 94a5 4e3d abda 14bd 12f0 173e
00000040: c04b 2f3d e404 c1bb cb6e d23d 9067 da3d
00000050: 0625 293d 8755 8c3c 324d c5bb 0ed2 343d
00000060: b00c c7bc b507 27bb 18a6 4c3c af7c 6e3d
00000070: f43c 9e3b a22d 163e d493 b13c 579f 873d
00000080: 2f3e 203d c49b ef3c fee6 1f3d 21c0 e5bc
00000090: 3a68 f83b 9aa4 a7bd afba 583d 4e0f 053d
000000a0: 201e 233d 121e 2e3d 1ad6 2c3e d0d3 9c3e
000000b0: c946 ef3d 5967 453d f095 083c 21d2 ac3d
000000c0: bf68 cabb 1033 4a3c 6903 223d c27a 5cbc
000000d0: a2da 21bc dd38 b53c f207 c53c 9b77 f03c
000000e0: be57 d93d f4b9 b03c 1415 303d 332c e2bc
000000f0: 603b 4e3e 612e f03c 6593 a13d 4929 2db8
00000100: 5497 3f3d 84a1 afbc 3db5 833d e082 1bbb
00000110: 5284 5d3d bc92 463d a7d5 573c bbb8 fb3c
00000120: b4d2 3e3c 9a69 383d 11c6 fabb baae aebc
00000130: 1285 773d 9042 89bd e98d 263e bff8 c43e
00000140: 557c ec3c b17a 02bc f885 733d 932b c9bb
00000150: 71e8 8e3c 52a7 e4bc ffb9 683d 09fb 3d3d
00000160: bd2f 2b3c 4db8 8e3d dc21 173e 076b 64bc
00000170: d4ab 443c 393b ee3c b6b5 3e3d 7582 9c3d
00000180: 2cc6 bc3d 5de9 a53d 1049 3c3d 2e25 07bc
00000190: 130f 093c 9dec 933d 6803 613d 1322 5c3d
000001a0: 6dfe 7f3e 4dc3 833c bcec 7e3c c333 223d
000001b0: b786 cfbb 2128 f43c b959 6a3b e703 7a3a
000001c0: 3ff8 15bc 641e 8b3d 95c4 ee3c c4f5 7d3e
000001d0: 2dc4 223d 8e7e 6f3d dfe4 8f3c b5ab f73d
000001e0: 0a56 f93c f03f 8fbc c559 343e 8f00 303c
000001f0: 5a39 713c d7b7 883d 2d32 193d d4ae ab3c
00000200: c579 e1bc 8a2e 7f3d 0da4 9fba 95c9 86bd
00000210: 9c67 d6bb 525e 23bb 5d41 63bc 31a5 92bd
00000220: 9df2 8fbc 7b50 53bc d613 593d 534b f73c
00000230: a510 893d 78ea db3d d623 993c 3e9a 6cbc
00000240: 703a a83d 30b7 e43d 79f1 153c c3ad 5fba
00000250: de55 463d 46ec 76bd cd16 7f3d e634 9abd
00000260: 1a12 6dbd c9d3 483c 9f11 0c3d e2d8 02bc
00000270: 03fa 59bc b5ac 55bd ea8b 143e b1fc 0fbc
00000280: 47c2 8b3c fb4f 90bc 148f 133b bd04 aa3c
00000290: cded 563d 80fd 0bbc 29cf 953d df07 f43c
000002a0: b41c 083e e20e 033e 8833 543b a639 8c3c
000002b0: 2d10 b13d ce10 af3c 48fd 943b 40c9 033d
000002c0: 29bc 1e3c 40d5 db3d ee53 07bb 1bea 823d
000002d0: bc1d 173e 52c8 0a3c 7784 abba 0549 aa3c
000002e0: d8fe 443e ac2a 83bc dfa2 85bc 5df5 e73c
000002f0: 62d8 013d 8f55 50bc 3bd3 5cbd 653b 543d
00000300: 8ce5 d03c 78d9 e73d dd58 42bc 78b4 e3bb
00000310: 2c1a ee3c fe3c b23c 911b db3d 051e 24bc
00000320: e0be b1bc ba25 f63c 2439 1d3c b2ce b03d
00000330: 4336 f5bb 9d08 283e 7912 55bd 20ca e83b
00000340: 9978 54bb d2d8 9e3d b780 ad3d dc4e ab3c
00000350: 25f0 7e3d ee33 e13d cd5c 5f3d ffb5 f3bc
00000360: 3556 113d 08e0 bbbb bb7a 9abd 519e 7cbd
00000370: 8d70 a1bd 427f 7bbc d07f 9cbd 6461 633c
00000380: 671c 16bd 7f29 d2bb 449b 4cbd 2010 f1bc
00000390: 2305 ce3d 06e6 d9bc 2ca5 a9bc 896a 8abc
000003a0: d300 4fbd 0401 7a3c 7300 843d 8929 4e3d
000003b0: d587 983b 098a c2bc 008d c43c b0ac 3d3d
000003c0: 5a36 1fbd 70c8 273a 947a 0e3e 32bb 9c3c
000003d0: e953 b73c c596 beba 2b17 8a3d 098c 803c
000003e0: 4fc7 01bc e3b0 fbbb a192 263c ff39 c43d
000003f0: addf debb 9ac2 89bb 918e c23c da50 f43d
0.2299981 0.006515399 0.07915391 -0.003948802 -0.0055374117 0.047537036 0.08411447 0.3566315
0.056384332 -0.018893804 -0.039363388 -0.0038734723 0.015829494 0.050450876 -0.03634135 0.14837673
0.04279685 -0.0058904756 0.10275038 0.10664284 0.041295074 0.017130626 -0.0060211653 0.044145636
-0.024298042 -0.0025486771 0.012490772 0.058224376 0.0048290435 0.14665845 0.021676935 0.066221885
0.039121803 0.02924908 0.03903865 -0.028045716 0.007580784 -0.08185692 0.05291241 0.0324853
0.03982365 0.042509146 0.16878548 0.3063035 0.11683423 0.048194263 0.008336529 0.084385164
-0.0061770375 0.012341276 0.039554033 -0.013457002 -0.009878786 0.022121841 0.02405164 0.029353907
0.106124386 0.021573044 0.04298885 -0.027608966 0.20139837 0.02931899 0.078894414 -4.1284864e-05
0.046775177 -0.021439321 0.06431053 -0.002372913 0.05408127 0.04847978 0.013173497 0.030727735
0.011646915 0.045022584 -0.007653006 -0.02132355 0.06042964 -0.06702149 0.16265072 0.38471028
0.02886788 -0.007963822 0.059453934 -0.0061392277 0.017444821 -0.027911816 0.056818005 0.046381984
0.010448393 0.06968746 0.1475901 -0.013941533 0.012003858 0.029080974 0.04656001 0.0764207
0.09217486 0.08101151 0.045968115 -0.00824861 0.00836541 0.07222865 0.05493489 0.053743433
0.249994 0.016084338 0.015559372 0.039600145 -0.006333198 0.029804291 0.0035759045 0.00095373247
-0.009153425 0.06792906 0.029146472 0.24800783 0.03973787 0.0584703 0.017565189 0.120932974
0.030436534 -0.017486542 0.1761237 0.010742321 0.014723146 0.0667569 0.037401367 0.020957388
-0.027523885 0.062300242 -0.0012179628 -0.065814175 -0.006543113 -0.0024928045 -0.013870564 -0.07160414
-0.017571742 -0.012897606 0.052997433 0.030187285 0.06692628 0.10738081 0.018693846 -0.014441071
0.08214271 0.11167753 0.00915181 -0.00085326674 0.048421733 -0.06028392 0.062277604 -0.07529621
-0.05787859 0.012257525 0.034196492 -0.007986279 -0.013304236 -0.05216666 0.14506498 -0.008788274
0.017060412 -0.017616263 0.00225157 0.020754213 0.05247288 -0.008544326 0.07314903 0.02978891
0.132922 0.12798646 0.0032379348 0.017117333 0.086456634 0.021370318 0.004546795 0.03217435
0.009688416 0.107340336 -0.0020649391 0.06392308 0.14757437 0.008470612 -0.0013085742 0.020786772
0.1923784 -0.016011558 -0.016313015 0.02831524 0.0317005 -0.012715711 -0.053912383 0.051814456
0.025500081 0.11320776 -0.011862007 -0.006949004 0.029065214 0.021757599 0.10698617 -0.010016923
-0.021697462 0.030047286 0.009596143 0.08633174 -0.007483275 0.16409536 -0.05201957 0.0071041733
-0.0032420515 0.07756199 0.08471816 0.020911627 0.06224074 0.10996233 0.05453186 -0.029749868
0.035482604 -0.0057334937 -0.0754294 -0.06167442 -0.078827955 -0.015350165 -0.07641566 0.0138782
-0.03664818 -0.006413638 -0.04995276 -0.029426634 0.100595735 -0.026598942 -0.020708643 -0.016896503
-0.050537895 0.015259031 0.06445398 0.05033258 0.0046548643 -0.02374746 0.023993015 0.046307266
-0.038870193 0.0006400412 0.13913947 0.01913223 0.022378879 -0.0014540782 0.067427 0.015691774
-0.007921054 -0.0076809986 0.010166795 0.095813744 -0.0068015666 -0.0042041065 0.023749622 0.11929484

fc2.bias f4 [2]
00000000: 7c2f 073f 356c 873f
0.5280683 1.0579897
