MRSN/checkpoints/MRRN-0.pth (torch, 531417 bytes, 4 tensors)

fc1.weight f4 [128, 1032]
-0.08810479 -0.081734106 -0.06528663 -0.0017435512 -0.08791233 -0.07298359 -0.033974066 -0.039378587
-0.0717885 -0.019854475 -0.01613154 -0.10878104 -0.04943395 -0.10968684 -0.033042762 -0.10091625
-0.034517705 -0.096151836 -0.040455937 -0.09044054 -0.10043331 -0.067747355 -0.07257583 -0.023658082
-0.033132087 -0.0842847 -0.08566361 -0.07171637 -0.108198635 -0.06994927 -0.042532194 -0.07369013
-0.05063311 -0.032957308 -0.043878105 -0.07588364 -0.08380581 -0.02711641 -0.048161212 -0.070871115
-0.07496793 -0.11397661 -0.04527326 -0.08195943 -0.0856411 -0.030508019 -0.041521028 -0.058941975
-0.091124825 0.019474553 -0.07325252 -0.10483678 -0.04223899 -0.028049879 -0.028177911 -0.08108689
-0.08722835 -0.045642894 -0.019376721 -0.08411094 -0.044129398 -0.07721882 -0.05109291 -0.060247473
-0.040742192 -0.069394976 -0.04292692 -0.04918262 -0.08369152 -0.061984617 -0.06317967 -0.048615906
-0.09102699 -0.04502881 -0.046945356 -0.054870903 -0.0037435328 -0.11384521 -0.08634722 -0.043462034
-0.05122018 -0.09248021 -0.09158519 -0.04212251 -0.08404597 -0.043331735 -0.036943182 -0.035205167
-0.03482221 -0.051596306 -0.028449932 -0.024449307 -0.057194524 -0.06072688 -0.081697024 -0.051908895
-0.05108622 -0.07366311 -0.08942854 -0.04383148 -0.07892143 -0.06685104 -0.08673171 -0.056374382
-0.038508944 -0.087347664 -0.1001921 -0.04644143 -0.07146413 -0.06308084 0.0016815707 -0.044760622
-0.10397413 -0.07349442 -0.029289227 -0.06223328 -0.07048413 -0.045784634 -0.06683333 -0.060260013
-0.08091999 -0.07835914 -0.037536915 -0.034154564 -0.11074414 -0.03036748 -0.089108646 -0.036646713
-0.04093278 -0.07812191 -0.046783082 -0.08076481 -0.015589357 -0.11854539 -0.061366223 -0.067961656
-0.07407666 -0.06879058 -0.050327484 -0.026219195 -0.06390673 -0.051316723 -0.10531903 -0.06474212
-0.09893248 -0.08087053 -0.10711399 -0.07321281 -0.05568719 -0.062099323 -0.06744196 -0.052034095
-0.030164933 -0.06325887 -0.055478785 -0.044199795 -0.024651214 -0.05814173 -0.06688622 -0.06252268
-0.06440128 -0.08700861 -0.039652158 -0.052145418 -0.036349826 -0.041910857 -0.063684255 -0.09214294
-0.054622546 -0.06401124 -0.12231134 -0.07945002 -0.057981595 -0.045110248 -0.054674584 -0.06263035
-0.07582782 -0.09420724 -0.017012918 -0.081915334 -0.105610706 -0.03781717 -0.0712204 -0.07190092
-0.037225977 -0.10221226 -0.050817583 -0.0817664 -0.058205143 -0.069818266 -0.036572482 -0.080464676
-0.09664496 -0.073594235 -0.07090616 -0.016740238 -0.06972501 -0.04099219 -0.081969626 -0.027043827
-0.025497032 -0.06768605 -0.051153034 -0.08717948 -0.02628416 0.017583117 -0.109087475 -0.09758686
-0.07998713 -0.08216696 -0.052433863 -0.05758292 -0.03267024 -0.09252036 -0.03974679 -0.04339915
-0.049832 -0.05587868 -0.07394248 -0.050487064 -0.065150835 -0.077537894 -0.077133745 -0.04002967
-0.086539485 -0.063882686 -0.08526892 -0.080980204 -0.06771309 -0.060687125 -0.040112827 -0.038653933
-0.038339876 -0.030588457 -0.033817347 -0.043411218 -0.0973714 -0.07907744 -0.09052861 -0.0031523777
-0.043742448 -0.056212556 -0.07484472 -0.093506865 -0.059491415 -0.06564103 -0.03848379 -0.022766005
-0.12555033 -0.06720696 -0.08544154 -0.10461626 -0.066157974 -0.08840283 -0.058349136 -0.10254711
00000000: 4970 b4bd 3664 a7bd ffb4 85bd df87 e4ba
00000010: 610b b4bd 6c78 95bd 6428 0bbd 714b 21bd
00000020: d905 93bd daa5 a2bc 4b26 84bc 98c8 debd
00000030: 417b 4abd 7ea3 e0bd d957 07bd 2ead cebd
00000040: 7062 0dbd 41eb c4bd 20b5 25bd e438 b9bd
00000050: fbaf cdbd 20bf 8abd a3a2 94bd 98ce c1bc
00000060: 83b5 07bd 759d acbd 6770 afbd 08e0 92bd
00000070: 3f97 ddbd 9041 8fbd 3d36 2ebd daea 96bd
00000080: aa64 4fbd 3efe 06bd 87b9 33bd e268 9bbd
00000090: 61a2 abbd 3c23 debc b144 45bd e024 91bd
000000a0: c988 99bd 926c e9bd 7470 39bd 58da a7bd
000000b0: 9a64 afbd f4eb f9bc f411 2abd 246d 71bd
000000c0: a79f babd 1989 9f3c 6b05 96bd aab4 d6bd
000000d0: cb02 2dbd dcc8 e5bc 5dd5 e6bc e210 a6bd
000000e0: c7a4 b2bd 0bf4 3abd eebb 9ebc 5b42 acbd
000000f0: 07c1 34bd e724 9ebd cd46 51bd 0ec6 76bd
00000100: 49e1 26bd f41e 8ebd 23d4 2fbd b773 49bd
00000110: 7666 abbd 95e3 7dbd 5864 81bd 7921 47bd
00000120: 5c6c babd 2170 38bd c649 40bd 50c0 60bd
00000130: 0f56 75bb ad27 e9bd d0d6 b0bd 3f05 32bd
00000140: 40cc 51bd 4466 bdbd 0491 bbbd a788 2cbd
00000150: 4b20 acbd 9e7c 31bd bc51 17bd 4b33 10bd
00000160: bca1 0ebd a656 53bd d50f e9bc ea49 c8bc
00000170: ce44 6abd c0bc 78bd c550 a7bd 6c9e 54bd
00000180: c93f 51bd afdc 96bd 4f26 b7bd a388 33bd
00000190: 8fa1 a1bd 33e9 88bd 65a0 b1bd d3e8 66bd
000001a0: 8ebb 1dbd 55e3 b2bd 8431 cdbd 5e39 3ebd
000001b0: c95b 92bd 8730 81bd 2668 dc3a ea56 37bd
000001c0: 63f0 d4bd 3e84 96bd f6ef efbc 53e8 7ebd
000001d0: fc59 90bd ab88 3bbd eadf 88bd 34d3 76bd
000001e0: 61b9 a5bd c27a a0bd 4fc0 19bd a8e5 0bbd
000001f0: d3cd e2bd 39c5 f8bc 987e b6bd dd1a 16bd
00000200: 21a9 27bd 61fe 9fbd 9e9f 3fbd 0568 a5bd
00000210: 816a 7fbc edc7 f2bd 265b 7bbd 7b2f 8bbd
00000220: 81b5 97bd 13e2 8cbd 3124 4ebd a3c9 d6bc
00000230: 88e1 82bd 7c31 52bd 81b1 d7bd 8497 84bd
00000240: 1d9d cabd 739f a5bd 945e dbbd 99f0 95bd
00000250: 4018 64bd dc5b 7ebd 031f 8abd b421 55bd
00000260: 731c f7bc de8d 81bd b93d 63bd d80a 35bd
00000270: 58f1 c9bc 0626 6ebd a4fb 88bd e40b 80bd
00000280: d1e4 83bd 9231 b2bd 4d6a 22bd 6f96 55bd
00000290: 8ee3 14bd b8aa 2bbd e46c 82bd 70b5 bcbd
000002a0: e4bb 5fbd 5318 83bd 5e7e fabd b1b6 a2bd
000002b0: 1c7e 6dbd 86c5 38bd 75f2 5fbd 5744 80bd
000002c0: 9e4b 9bbd baef c0bd ad5e 8bbc 3ac3 a7bd
000002d0: 6d4a d8bd 2de6 1abd 00dc 91bd ca40 93bd
000002e0: 447a 18bd a954 d1bd 1926 50bd 2475 a7bd
000002f0: 8468 6ebd e1fc 8ebd 07cd 15bd aaca a4bd
00000300: cbed c5bd 93b8 96bd 4037 91bd d322 89bc
00000310: fccb 8ebd 6de7 27bd b1df a7bd 048b ddbc
00000320: 27df d0bc fc9e 8abd d885 51bd 288b b2bd
00000330: e151 d7bc 780a 903c 4169 dfbd 9fdb c7bd
00000340: 4bd0 a3bd 2747 a8bd e4c4 56bd 11dc 6bbd
00000350: 3bd1 05bd 517b bdbd 88cd 22bd 4fc3 31bd
00000360: a41c 4cbd 0be1 64bd 286f 97bd 86cb 4ebd
00000370: cd6d 85bd 30cc 9ebd 4cf8 9dbd 27f6 23bd
00000380: 9d3b b1bd edd4 82bd 79a1 aebd f3d8 a5bd
00000390: 29ad 8abd 1093 78bd 594d 24bd 9653 1ebd
000003a0: 460a 1dbd a594 fabc 0f84 0abd f6cf 31bd
000003b0: a86a c7bd 5af3 a1bd 1067 b9bd 1f98 4ebb
000003c0: 482b 33bd 233f 66bd 3048 99bd 8780 bfbd
000003d0: 45ad 73bd ce6e 86bd 2ea1 1dbd c67f babc
000003e0: 4490 00be cda3 89bd f9fb aebd 0d41 d6bd
000003f0: d57d 87bd 8b0c b5bd 81ff 6ebd 3804 d2bd

fc1.bias f4 [128]
-0.077701084 -0.035872366 -0.08577836 -0.072164156 0.027175017 0.014308472 -0.051499594 -0.07142609
0.27628788 0.047210637 0.07387002 0.0006434333 -0.023052676 0.25419742 0.114127986 0.08599491
-0.036190122 -0.042512298 -0.07758846 0.08092159 0.2532238 0.18062294 -0.036078203 -0.06300725
-0.031054655 0.00548667 -0.030924505 0.19970158 0.14672628 -0.039079785 -0.04137463 -0.09128851
-0.058510095 0.04791191 0.18818113 -0.056278672 -0.06672745 -0.057598777 -0.03348311 -0.075076655
0.06749783 -0.050665576 -0.07625453 0.11020005 -0.04678402 -0.056966506 -0.024440346 0.15294862
0.051927872 0.19529736 0.2353518 -0.040038798 -0.057745982 0.25359187 0.1752731 -0.07228525
-0.10773994 -0.005957016 -0.050906118 -0.024758121 -0.011192404 0.2255935 0.20665301 -0.0465124
-0.063167244 -0.037611816 0.12973863 -0.044493884 0.063015 -0.024339745 -0.018873971 0.14632708
0.22797123 -0.060795 -0.046775587 0.1346781 0.012367368 -0.07808123 0.0649062 0.05630716
-0.08489082 -0.08106345 0.13647212 -0.083339244 -0.0738969 0.088257916 -0.052368015 0.14420174
-0.06684162 -0.031768832 -0.055425815 0.07420176 -0.06660997 0.05290502 -0.010292286 0.12447883
0.09520601 0.065021195 -0.041540004 -0.030487033 0.06990664 0.092966 0.38498393 -0.0397668
-0.08055987 -0.04820256 -0.07574771 0.1760516 -0.031703882 -0.038440492 -0.001832156 -0.053516787
0.096622534 -0.05540516 -0.0458254 -0.022087276 0.0065592155 0.18588929 0.24582678 -0.051532652
-0.08208142 0.025303612 -0.04466837 0.06266444 -0.04630689 -0.070554346 -0.06316135 -0.013941505
00000000: bf21 9fbd e7ee 12bd 91ac afbd cdca 93bd
00000010: 249e de3c 156e 6a3c 3df1 52bd d847 92bd
00000020: 9b75 8d3e f15f 413d 2a49 973d 14ac 283a
00000030: f7d8 bcbc 2a26 823e efbb e93d 191e b03d
00000040: 183c 14bd 6021 2ebd b3e6 9ebd 38ba a53d
00000050: 8da6 813e 38f5 383e bdc6 13bd f209 81bd
00000060: 5566 febc 86c9 b33b 6355 fdbc 927e 4c3e
00000070: 6a3f 163e 2012 20bd 7278 29bd 78f5 babd
00000080: 48a8 6fbd 473f 443d 8eb2 403e 7784 66bd
00000090: 67a8 88bd b2ec 6bbd 9625 09bd cac1 99bd
000000a0: 4d3c 8a3d b586 4fbd 562b 9cbd 90b0 e13d
000000b0: 9aa0 3fbd b655 69bd 1f37 c8bc 909e 1c3e
000000c0: 52b2 543d 08fc 473e 1000 713e b9ff 23bd
000000d0: 0d87 6cbd cbd6 813e cb7a 333e 4a0a 94bd
000000e0: c2a6 dcbd 1233 c3bb ef82 50bd 8bd1 cabc
000000f0: 5860 37bc fc01 673e d99c 533e c983 3ebd
00000100: d45d 81bd d90e 1abd 34da 043e 383f 36bd
00000110: 020e 813d 2564 c7bc 969d 9abc c4d6 153e
00000120: 4a71 693e 2e04 79bd c297 3fbd 0ee9 093e
00000130: 80a0 4a3c 0de9 9fbd 8bed 843d 56a2 663d
00000140: 3ddb adbd 9804 a6bd 59bf 0b3e c4ad aabd
00000150: 4257 97bd 91c0 b43d d87f 56bd 9fa9 133e
00000160: 42e4 88bd 0920 02bd 2e06 63bd 18f7 973d
00000170: cf6a 88bd efb2 583d faa0 28bc c2ee fe3d
00000180: 5efb c23d d529 853d da25 2abd f1bf f9bc
00000190: 362b 8f3d f564 be3d 9d1c c53e 83e2 22bd
000001a0: 93fc a4bd 0c70 45bd 9e21 9bbd df46 343e
000001b0: eedb 01bd c773 1dbd f424 f0ba 6b34 5bbd
000001c0: 09e2 c53d 85f0 62bd 6ab3 3bbd 60f0 b4bc
000001d0: b0ee d63b c359 3e3e 04ba 7b3e e713 53bd
000001e0: 4e1a a8bd 8549 cf3c 2ef6 36bd 3756 803d
000001f0: 4bac 3dbd cc7e 90bd bd5a 81bd e96a 64bc

fc2.weight f4 [2, 128]
-0.040918667 0.001893032 -0.039315227 0.008937776 0.18875165 -0.026713453 0.033152863 -0.024555568
0.08231905 0.04930207 -0.10239991 -0.03559391 -0.008866211 0.11846693 0.041839294 0.0008264795
0.0106304465 -0.07306119 0.036730666 0.006706984 0.021452993 0.051025692 0.019844797 0.025012432
0.00052350946 -0.010352511 0.042480297 -0.065391816 0.036726434 0.012167166 -0.007049705 0.016410356
0.016410518 0.03704852 0.020207591 0.049159743 -0.014622784 0.02506808 -0.0744 0.052526426
0.08136025 -0.024054667 0.0022989102 0.28715485 0.039431512 0.010078526 -0.010947908 0.22706513
-0.018702654 0.019279443 0.1592036 0.057533134 0.050813906 0.23917148 0.0024202894 0.08017885
-0.012580237 -0.019904407 0.03229477 0.006425649 0.003251278 0.038372308 0.0146958 -0.0016032318
0.0833002 0.009169444 0.027636351 0.035448264 0.06723558 -0.24630676 0.0905309 0.05378327
0.011251587 -0.0005320385 -0.00965264 0.01054153 0.053028204 0.0140107395 0.024581581 0.17100431
0.0020054844 0.031193811 0.042491913 0.049202837 0.06093109 0.05042441 0.037798874 0.08174908
-0.01959247 -0.036289323 -0.0217088 0.02637272 0.032811616 0.07911151 -0.031614244 0.22137463
0.06485236 0.14682539 0.01073075 -0.042570204 -0.103205346 0.06246432 0.09406229 0.065271184
0.007871103 0.1855076 0.04881128 0.14225173 0.07190071 0.0059831007 0.07119838 0.03389608
0.007507847 0.019648382 -0.059389718 -0.049874466 -0.019040797 0.005769815 0.0316595 0.0064594233
-0.025204444 0.050362818 0.047635086 0.052133985 -0.027945923 0.074432686 0.003005586 0.05165111
-0.030820806 0.057790384 -0.02356002 0.030494384 -0.019273609 0.03277635 0.030085525 0.0075911977
0.03347567 -0.019938024 0.11468229 0.024355028 0.011465186 0.050675895 -0.0225496 0.045457847
-0.002454472 0.02290084 -0.060846727 0.06873919 0.04495579 -0.009798323 0.023225183 -0.0133424355
-0.026939921 0.04531239 0.015831232 0.14898317 -0.015037663 0.11615394 0.008899607 -0.0010468529
0.047840733 -0.03232829 0.023102177 -0.0017243417 0.05494392 0.0356924 0.14295118 0.029438479
-0.048750408 -0.027529474 0.07867594 -0.010244022 0.035237256 0.08877985 0.020020224 -0.019135857
0.04905565 -0.00048921595 -0.0065636146 0.04526374 0.053051148 0.02006366 0.028882328 -0.013220924
-0.037663855 0.04063314 0.047424484 -0.0032901552 0.0102715315 0.045506172 0.0383323 0.08569683
0.020092696 -0.022895396 -0.0034629488 0.03748098 -0.022623314 -0.031637378 -0.03135799 -0.04291936
0.04382561 0.0017959555 0.020653144 0.119569585 0.08059617 0.001892643 0.0063676615 -0.06923443
-0.08154837 0.050789703 0.056144323 0.0044639953 -0.030342119 0.0039323987 -0.023180883 -0.05782679
0.03970981 -0.021874642 0.0026979768 0.0013462607 -0.018634645 0.027796136 0.0014397331 -0.041010648
-0.026710443 0.009060021 -0.01176366 0.0018544832 0.035268385 -0.03921538 0.11246542 0.05033197
0.04439324 -0.10240068 -0.06998832 -0.04172634 0.035155177 0.012601345 -0.024470193 -0.056982614
0.20791994 0.03598296 0.049830645 0.0058438997 -0.013348989 0.02196236 0.033379856 -0.038765937
0.09704531 0.19797012 0.01584172 0.035775784 0.054240525 -0.008087536 0.078416586 0.03307125
00000000: 559a 27bd 9d1f f83a 0109 21bd c06f 123c
00000010: 1d48 413e 2cd6 dabc 4ccb 073d c228 c9bc
00000020: e496 a83d f8f0 493d 0bb7 d1bd ebca 11bd
00000030: 9643 11bc ca9e f23d ae5f 2b3d 1aa8 583a
00000040: 532b 2e3c 1ba1 95bd e572 163d 42c6 db3b
00000050: 30be af3c 5100 513d 8e91 a23c dfe6 cc3c
00000060: 203c 093a 949d 29bc d2ff 2d3d 25ec 85bd
00000070: 756e 163d cb58 473c 3601 e7bb 036f 863c
00000080: 5a6f 863c 30c0 173d 648a a53c ba5b 493d
00000090: 6794 6fbc 935b cd3c 075f 98bd f325 573d
000000a0: 34a0 a63d 4b0e c5bc 50a9 163b f605 933e
000000b0: f082 213d 6720 253c db5e 33bc c383 683e
000000c0: 4f36 99bc ecef 9d3c 4506 233e dda7 6b3d
000000d0: 3e22 503d 5ee9 743e b89d 1e3b cf34 a43d
000000e0: 571d 4ebc 910e a3bc 8547 043d 408e d23b
000000f0: 6513 553b 482c 1d3d a7c6 703c 8823 d2ba
00000100: 4c99 aa3d 703b 163c a165 e23c 3332 113d
00000110: cfb2 893d d737 7cbe 4468 b93d d94b 5c3d
00000120: 9458 383c 8078 0bba 1b26 1ebc 62b6 2c3c
00000130: 1a34 593d 4d8d 653c 505f c93c c11b 2f3e
00000140: 726e 033b 2a8a ff3c 000c 2e3d ea88 493d
00000150: e192 793d d389 4e3d fed2 1a3d 106c a73d
00000160: 6380 a0bc 1da4 14bd a7d6 b1bc 9a0b d83c
00000170: 7965 063d 3705 a23d f07d 01bd 08b0 623e
00000180: 50d1 843d 6559 163e 07d0 2f3c 185e 2ebd
00000190: 535d d3bd 96da 7f3d bba3 c03d e6ac 853d
000001a0: ccf5 003c b4f5 3d3e 56ee 473d 70aa 113e
000001b0: ae40 933d e30d c43b 75d0 913d 9ed6 0a3d
000001c0: 6304 f63b a5f5 a03c a242 73bd 2b49 4cbd
000001d0: 72fb 9bbc b710 bd3b 64ad 013d 92a9 d33b
000001e0: 8d79 cebc 3e49 4e3d 021d 433d 728a 553d
000001f0: d9ee e4bc 2a70 983d 5ef9 443b 1d90 533d
00000200: ea7b fcbc 9cb5 6c3d f100 c1bc 5ccf f93c
00000210: b0e3 9dbc 7e40 063d eb75 f63c 95bf f83b
00000220: c91d 093d 1155 a3bc 8cde ea3d 3284 c73c
00000230: 7ad8 3b3c 8791 4f3d f0b9 b8bc 0232 3a3d
00000240: 35db 20bb 8b9a bb3c 6b3a 79bd 22c7 8c3d
00000250: 9023 383d 2589 20bc bd42 be3c 3b9a 5abc
00000260: 1cb1 dcbc 7c99 393d 80b0 813c 0b8f 183e
00000270: 8860 76bc 1ee2 ed3d a8cf 113c 8e36 89ba
00000280: a5f4 433d ab6a 04bd c740 bd3c 4e03 e2ba
00000290: e00c 613d 3232 123d cb61 123e f728 f13c
000002a0: 82ae 47bd 7e85 e1bc da20 a13d 8bd6 27bc
000002b0: f154 103d 36d2 b53d 7401 a43c cdc2 9cbc
000002c0: 94ee 483d ba3e 00ba 9713 d7bb 7966 393d
000002d0: 294c 593d 8b5c a43c a29a ec3c 939c 58bc
000002e0: 6a45 1abd ef6e 263d 2d40 423d a59f 57bb
000002f0: ed49 283c ae64 3a3d 5402 1d3d d281 af3d
00000300: 7099 a43c 208f bbbc a4f2 62bb a885 193d
00000310: 8754 b9bc 3296 01bd 3c71 00bd 36cc 2fbd
00000320: 7c82 333d 4466 eb3a c830 a93c e6e0 f43d
00000330: 9b0f a53d 9012 f83a d1a7 d03b c8ca 8dbd
00000340: d502 a7bd dd08 503d 97f7 653d b546 923b
00000350: 0990 f8bc 5adb 803b d6e5 bdbc c9db 6cbd
00000360: c1a6 223d 7332 b3bc 8ad0 303b 0375 b03a
00000370: afa7 98bc b9b4 e33c 6db5 bc3a c8fa 27bd
00000380: dccf dabc 7b70 143c 5ebc 40bc 2112 f33a
00000390: 9575 103d 4ea0 20bd 4554 e63d e528 4e3d
000003a0: b0d5 353d 73b7 d1bd 0956 8fbd 3de9 2abd
000003b0: e0fe 0f3d df75 4e3c b775 c8bc 9a66 69bd
000003c0: f7e8 543e de62 133d 381b 4c3d 2f7e bf3b
000003d0: b8b5 5abc 68ea b33c 51b9 083d 08c9 1ebd
000003e0: b1bf c63d aeb8 4a3e 7fc6 813c a189 123d
000003f0: 502b 5e3d 9681 04bc e098 a03d b875 073d

fc2.bias f4 [2]
0.7433042 0.8992634
00000000: 2f49 3e3f 2036 663f
