MRSN/checkpoints/MRRN-2.pth (torch, 531417 bytes, 4 tensors)

fc1.weight f4 [128, 1032]
0.16666733 -0.16036136 -0.18017481 -0.62606364 -0.071053825 0.07708378 0.08530168 -0.28787255
-0.30224505 0.071143314 0.8787028 0.017972024 -0.055125616 0.07365469 -0.11259593 -0.029817222
0.03723476 -0.01245509 -0.18963486 -0.14141847 0.05301316 -0.20002767 -0.010786583 -0.59453696
-0.32902297 -0.24724936 -0.03258093 -0.5196221 -0.05881489 0.031693306 -0.4361984 -1.2478375
-0.26376608 0.027767664 0.2738317 -0.25314644 0.3648663 -0.09690262 -0.4134781 -0.25204262
-0.38989797 -0.11826638 0.50582695 0.6647539 -0.118686534 -0.11825264 -0.71031594 0.38880453
0.18282753 0.00032635205 -0.2571522 -0.67106175 0.0032775435 -0.24653395 -0.10022505 -0.90115005
0.42920563 -0.50192577 0.2163454 0.027628943 0.3577224 -0.7775731 -0.1372777 0.16884081
0.11117826 -0.29110518 -0.2344054 -0.5063289 -0.33699793 -0.1762854 -0.1380619 -0.07722115
-0.12950575 -0.077976696 -0.23517385 0.074865036 -0.7612161 0.07027463 0.063984595 0.27127758
-0.1758768 -0.22726429 -0.35934633 0.07742973 -0.030972969 0.15408105 -0.08520595 -0.23781767
-0.09254028 -0.27135321 -0.053490173 0.5593321 -0.07512539 -0.26469058 -0.1979734 -0.059967134
-0.41654786 0.07804704 0.22986771 -0.23866823 0.21341787 0.708416 -0.0030053805 -0.13678238
-0.07441992 -0.12967648 -0.08674768 -1.6208117 -1.0832365 1.8904048 -0.08379227 0.035561834
0.3310976 0.48667186 0.035766803 0.5430943 -0.26343605 0.11876974 -0.18939307 0.47618732
0.15419067 0.012318557 0.38582015 -0.33081916 0.09412021 -0.23563293 -0.28755426 0.19497862
-0.10673923 0.3280364 0.24107474 -0.001628075 -0.8061017 0.015762534 0.13409565 0.2356012
0.16040966 -0.03303185 0.31651476 0.6344246 0.14828107 0.039878536 0.22049579 -0.4558691
0.09740651 0.1914902 0.23135571 -5.784021e-05 0.2342747 0.26310652 0.17172945 0.20266867
-0.57105446 -0.07893257 -0.054986212 0.26177686 -0.5011327 0.10044648 0.19403303 -0.06886906
-1.0389106 0.19726193 0.14274949 0.53797716 -0.09275201 0.4218433 0.104677096 -0.29931775
-0.14922972 -0.14110602 0.06265914 0.7772329 0.9132571 0.022950267 -0.07467819 -1.0107651
0.5996657 0.24007961 -0.021102358 -0.02306573 -0.4897571 0.087636866 -0.26242757 0.09759874
-0.8794251 0.53524226 -0.22851995 0.5212064 0.13241093 0.499881 -0.47053015 -0.034917463
0.35629585 0.15050805 0.12534899 -0.23068118 -0.87055635 -0.3394713 -0.0073848134 0.14212182
0.17041233 0.023899337 0.08391282 0.15605076 0.20120093 -0.2798934 0.1451179 0.2958494
0.4277873 -0.029044025 -0.036807977 -0.11482072 0.28928426 0.1407111 0.37402344 0.23869237
-0.27395108 0.0041904813 -0.057846826 -0.059560083 0.20409898 -0.22828087 0.33991462 0.12962668
0.039137516 -0.30877316 0.49786142 0.31807432 -0.13613287 0.41779137 1.1086792 0.17144285
0.18537621 0.013044676 0.14725289 0.17992449 -1.364697 -0.99686277 2.0143166 -0.084544085
0.25658703 0.40240896 0.7131144 0.19921222 0.34068453 -0.13810197 0.20349395 0.1660437
0.67520446 0.2653744 0.19219239 0.71251273 -0.15557083 0.35664126 -0.07059529 -0.17582767
00000000: d7aa 2a3e c535 24be bf7f 38be b545 20bf
00000010: ab84 91bd 1ade 9d3d a6b2 ae3d 0864 93be
00000020: ddbf 9abe 96b3 913d abf2 603f 113a 933c
00000030: 66cb 61bd 45d8 963d b298 e6bd 3f43 f4bc
00000040: 7a83 183d 6f10 4cbc a42f 42be 01d0 10be
00000050: 5424 593d 0ed4 4cbe 35ba 30bc 9333 18bf
00000060: b375 a8be f02e 7dbe 9573 05bd f405 05bf
00000070: e2e7 70bd d7d0 013d 6655 dfbe 24b9 9fbf
00000080: 590c 87be 0379 e33c ab33 8c3e 699c 81be
00000090: c1cf ba3e e174 c6bd 67b3 d3be bb0b 81be
000000a0: b5a0 c7be a535 f2bd e07d 013f 502d 2a3f
000000b0: ed11 f3bd 712e f2bd 44d7 35bf 6311 c73e
000000c0: 2437 3b3e 3b1a ab39 74a9 83be b4ca 2bbf
000000d0: 0ecc 563b 6573 7cbe ca42 cdbd c5b1 66bf
000000e0: d7c0 db3e 357e 00bf a689 5d3e 1856 e23c
000000f0: 6427 b73e 080f 47bf 8692 0cbe 9be4 2c3e
00000100: 6db1 e33d bd0b 95be f807 70be c59e 01bf
00000110: fe8a acbe 2984 34be 1960 0dbe 1f26 9ebd
00000120: 289d 04be 3fb2 9fbd 6ad1 70be d752 993d
00000130: 0fdf 42bf 25ec 8f3d 5b0a 833d e5e4 8a3e
00000140: 0c19 34be f8b7 68be 3efc b7be 7a93 9e3d
00000150: 06bb fdbc 6cc7 1d3e 7580 aebd 7a86 73be
00000160: c285 bdbd cfee 8abe 8318 5bbd 6330 0f3f
00000170: 57db 99bd 8685 87be 8ab9 4abe 19a0 75bd
00000180: c345 d5be 20d7 9f3d 7162 6b3e 7265 74be
00000190: 378a 5a3e c05a 353f ebf5 44bb ae10 0cbe
000001a0: 7969 98bd e9c9 04be c5a8 b1bd c276 cfbf
000001b0: 7ea7 8abf c9f8 f13f 489b abbd 49a9 113d
000001c0: a085 a93e 0e2d f93e 3680 123d 3a08 0b3f
000001d0: 17e1 86be 8d3d f33d 42f0 41be d3ce f33e
000001e0: 29e4 1d3e c6d3 493c 388a c53e 2161 a9be
000001f0: 19c2 c03d c249 71be 503a 93be 7aa8 473e
00000200: 199a dabd 63f4 a73e 4cdc 763e 2265 d5ba
00000210: ae5c 4ebf 6e20 813c 5f50 093e 7141 713e
00000220: 6e42 243e 684c 07bd 390e a23e a769 223f
00000230: fed6 173e ad57 233d a6c9 613e ad67 e9be
00000240: 107d c73d 0216 443e 83e8 6c3e 7499 72b8
00000250: b5e5 6f3e e6b5 863e d8d9 2f3e 6088 4f3e
00000260: a030 12bf 66a7 a1bd 3939 61bd 9e07 863e
00000270: 3c4a 00bf e2b6 cd3d 98b0 463e 390b 8dbd
00000280: 06fb 84bf 08ff 493e ec2c 123e dfb8 093f
00000290: c4f4 bdbd d8fb d73e f260 d63d 2d40 99be
000002a0: adcf 18be 197e 10be 6f53 803d bcf8 463f
000002b0: 38cb 693f 3302 bc3c e1f0 98bd c060 81bf
000002c0: b183 193f 6ed7 753e dade acbc 58f4 bcbc
000002d0: 71c1 fabe f57a b33d e85c 86be d9e1 c73d
000002e0: 0122 61bf a305 093f 2201 6abe c86d 053f
000002f0: bb96 073e 67f0 ff3e 54e9 f0be 9d05 0fbd
00000300: 696c b63e c81e 1a3e 7c5b 003e b037 6cbe
00000310: c8dc 5ebf 2fcf adbe 4efc f1bb 6288 113e
00000320: 9280 2e3e 8bc8 c33c 7cda ab3d c5cb 1f3e
00000330: 9e07 4e3e 304e 8fbe c999 143e 9379 973e
00000340: f006 db3e bced edbc f6c3 16bd 2027 ebbd
00000350: 111d 943e 9216 103e 0080 bf3e c66b 743e
00000360: 5143 8cbe 4e50 893b cbf0 6cbd 46f5 73bd
00000370: 53ff 503e 76c2 69be 4a09 ae3e dbbc 043e
00000380: a94e 203d 8417 9ebe b1e7 fe3e a3da a23e
00000390: 6a66 0bbe c0e8 d53e 33e9 8d3f b78e 2f3e
000003a0: 43d3 3d3e 56b9 553c 76c9 163e 203e 383e
000003b0: 64ae aebf 6632 7fbf 90ea 0040 7325 adbd
000003c0: 605f 833e 8c08 ce3e aa8e 363f 4afe 4b3e
000003d0: 346e ae3e 9a6a 0dbe b860 503e 5c07 2a3e
000003e0: 33da 2c3f 27df 873e 15ce 443e 3c67 363f
000003f0: f64d 1fbe af99 b63e 4394 90bd 2b0c 34be

fc1.bias f4 [128]
0.14895009 0.36275047 0.22794299 -0.07968323 -0.076769516 0.17575145 -0.021009421 -0.019240275
-0.10583962 0.20370306 -0.03224424 -0.10184967 -0.03426632 -0.029050888 -0.041279115 0.11646762
0.32413048 -0.031931177 0.15073757 -0.0029109751 -0.03390882 -0.05580068 -0.08443102 -0.07228539
0.081293106 -0.04561417 0.20026417 -0.062746815 -0.032809347 0.19606858 -0.089045815 0.11013857
-0.05259808 -0.062163632 -0.06751269 0.19872387 -0.04832107 -0.08713485 -0.08535533 0.21351568
-0.01767916 -0.004223176 -0.09718311 0.19534637 -0.06311414 0.025515432 -0.030662874 -0.063504666
-0.08347698 0.16096404 -0.0494721 -0.010720991 -0.056725796 -0.032042023 0.091776535 -0.017856514
-0.0865989 -0.08829195 0.013880291 -0.031322006 0.36882406 -0.00976165 -0.067468874 0.3779205
-0.076317705 -0.07056974 -0.029603682 -0.06348131 0.1205366 -0.010142175 -0.024189351 0.06626641
-0.1676829 -0.045028824 0.24824291 0.02778606 -0.07447694 -0.11739464 0.019968959 -0.07027557
0.02145029 -0.035310015 -0.04761667 -0.080064215 -0.07792935 0.13840063 -0.021422453 -0.05657205
-0.11103726 -0.030611305 -0.048833072 -0.04608634 -0.064889416 0.20924455 -0.091540195 0.22383077
-0.07976054 -0.04460576 -0.021188213 0.23964411 -0.049965773 -0.05288553 0.086931296 0.046004806
0.31531087 0.08521126 -0.043708216 -0.069395326 0.07594777 0.26281956 0.08249227 -0.039399423
-0.07385615 -0.07582645 -0.060458966 -0.06060859 -0.08018026 -0.06533213 0.024949085 0.3076688
-0.106237665 0.17621325 -0.047012955 -0.06358343 0.10993418 -0.08044946 0.19287458 0.23678753
00000000: 5f86 183e 6eba b93e e369 693e f630 a3bd
00000010: 5639 9dbd 30f8 333e f31b acbc c89d 9dbc
00000020: 71c2 d8bd 8997 503e 8912 04bd 8f96 d0bd
00000030: d75a 0cbd 21fc edbc 4a14 29bd 9386 ee3d
00000040: 6ef4 a53e 44ca 02bd f35a 1a3e 0fc6 3ebb
00000050: fae3 0abd 418f 64bd 2cea acbd 5d0a 94bd
00000060: 007d a63d edd5 3abd 0d12 4d3e 6781 80bd
00000070: 1863 06bd 34c6 483e a75d b6bd 5590 e13d
00000080: 1671 57bd 4b9f 7ebd 1844 8abd 457e 4b3e
00000090: 50ec 45bd c273 b2bd c6ce aebd dba3 5a3e
000000a0: e3d3 90bc 9162 8abb f007 c7bd e108 483e
000000b0: fc41 81bd bd05 d13c b530 fbbc bc0e 82bd
000000c0: fbf5 aabd c2d3 243e 42a3 4abd 18a7 2fbc
000000d0: 4f59 68bd 7f3e 03bd 56f5 bb3d d347 92bc
000000e0: c45a b1bd 69d2 b4bd 296a 633c 814b 00bd
000000f0: 82d6 bc3e 54ef 1fbc 1f2d 8abd cc7e c13e
00000100: 754c 9cbd de86 90bd 6c83 f2bc 7d02 82bd
00000110: e5db f63d 5d2b 26bc bf28 c6bc afb6 873d
00000120: 11b5 2bbe 2570 38bd 6433 7e3e 979f e33c
00000130: 5e87 98bd 9a6c f0bd f195 a33c a3ec 8fbd
00000140: 85b8 af3c 3ca1 10bd b309 43bd b5f8 a3bd
00000150: 6c99 9fbd e5b8 0d3e 247e afbc 18b8 67bd
00000160: 8167 e3bd 8fc4 fabc 3005 48bd 08c5 3cbd
00000170: bee4 84bd 3444 563e 6d79 bbbd e533 653e
00000180: 7e59 a3bd 88b4 36bd e792 adbc 4465 753e
00000190: e9a8 4cbd 7f9e 58bd 0909 b23d 896f 3c3d
000001a0: 6d70 a13e 3e83 ae3d 6307 33bd 231f 8ebd
000001b0: 818a 9b3d 4990 863e b5f1 a83d 4a61 21bd
000001c0: e541 97bd e64a 9bbd d2a3 77bd b640 78bd
000001d0: 8c35 a4bd dacc 85bd 0662 cc3c c486 9d3e
000001e0: 2293 d9bd 3f71 343e a890 40bd 0838 82bd
000001f0: 2c25 e13d b0c2 a4bd ea80 453e 6e78 723e

fc2.weight f4 [2, 128]
0.15606079 0.0823572 0.048837554 -0.0022539024 0.013901473 0.093975045 0.03525535 0.10108861
0.001089724 0.04649835 0.040498797 0.010698896 0.11121093 0.03281065 0.12894428 0.04529607
-0.0049885325 0.029205415 0.06323073 0.056440793 0.0104987305 -0.028003808 0.016256994 -0.015618383
0.039006986 0.17565522 0.07549688 -0.009294567 -0.014348102 0.100327596 -0.02501936 0.059999857
0.058071353 0.054189786 0.022375386 0.03327072 0.055880763 -0.03719047 0.013729534 0.056689817
0.017279427 0.000996924 -0.026901005 0.024707304 0.014131003 0.063950524 -0.0018597471 0.051500116
0.023104476 0.08444937 0.018328045 0.00053749507 -0.12507631 -0.015026301 0.032885026 0.17542142
-0.024369746 0.054715145 0.05962271 0.012527878 0.12056091 0.044508033 0.004828202 0.18617977
-0.026957469 -0.088818185 0.06281717 0.058070317 -0.17807975 0.045728218 -0.016056066 -0.06412715
0.20780052 0.036941078 0.18367577 0.047618963 -0.029674426 0.0068878727 -0.066215985 -0.01548321
-0.0011886273 -0.026452316 -0.0014556651 0.05822372 0.027000492 0.04081619 0.10324047 -0.0028910404
-0.011971533 0.10713101 -0.017310018 -0.057492513 -0.0035345315 0.19006088 0.07651312 0.021282483
0.00086511165 0.05539758 -0.035250217 0.026096255 -0.003895826 0.031603552 0.026253974 0.03546863
0.41331267 0.10274059 0.034817025 0.046754707 0.09057899 0.09604281 0.022899013 0.02541977
0.03456382 -0.020602964 0.017035618 -0.02729442 0.029158564 -0.01227835 0.0425372 0.17668055
-0.009331856 0.055412978 0.028947368 -0.042204853 0.050575897 -0.033179943 0.023299688 0.073268265
-0.0061663953 0.1279569 0.020908665 0.032277603 -0.011809478 -0.01888901 0.011853182 -0.048871562
0.06928958 -0.012706246 0.054929208 0.01398483 -0.014732257 0.035297222 0.024764849 0.060365204
0.22693333 -0.0042019775 -0.011699047 -0.0052333837 -0.077271275 0.033893738 0.019524943 0.039028496
0.029527996 0.020576835 0.006214631 0.00041087784 0.0029614167 0.0002943743 0.009263915 -0.027345829
0.023273144 0.059964664 -0.0040876814 0.014533424 0.0041223876 0.0939322 0.025077978 0.02181726
-0.03521924 -0.004745861 0.029023398 0.012428237 0.07472829 0.012927844 0.04258331 -0.028067932
-0.019717474 -0.0150912125 0.07673858 0.011685569 0.13158861 0.03031557 0.038511306 0.01492424
0.017623646 0.0015264979 0.015888223 -0.010694639 0.10541983 -0.02090874 -0.038141698 -0.020905966
0.024139933 -0.00020543623 -2.4745497e-05 0.029776886 0.049598783 -0.013830362 -0.055361267 0.09293019
0.0054884595 0.028905602 0.0015428166 -0.0543146 -0.01105417 0.05706175 0.11699695 -0.021334661
0.10772663 0.056579255 0.01594815 0.044327326 0.040507287 -0.018268498 0.029445898 -0.019423721
-0.00013687184 0.038705114 0.0324967 0.03519319 -0.017358769 0.005691326 0.039870955 0.029637508
0.05526047 -0.025262717 0.021152824 0.015626883 0.045014866 0.0029162422 0.0039831824 -0.08663978
-0.013883156 -0.026366867 0.05820135 0.020860685 -0.062221084 -0.006704067 -0.033482924 -0.07621381
0.058812298 0.024455763 0.008798049 -0.02427763 -0.014143831 -0.009858606 0.036241114 0.018052902
-0.054429673 -0.0032072554 0.029978745 0.049901873 -0.009249923 -0.013814086 0.012362314 0.0047596092
00000000: 66ce 1f3e e4aa a83d e309 483d 35b6 13bb
00000010: 01c3 633c fd75 c03d ea67 103d 8c07 cf3d
00000020: 12d5 8e3a 0e75 3e3d 11e2 253d 6c4a 2f3c
00000030: 8ec2 e33d 7664 063d f809 043e 5f88 393d
00000040: d876 a3bb 3240 ef3c 1d7f 813d 762e 673d
00000050: de02 2c3c 3e68 e5bc 632d 853c 3fe4 7fbc
00000060: cac5 1f3d f6de 333e 1c9e 9a3d 3d48 18bc
00000070: 4d14 6bbc 8e78 cd3d 67f5 ccbc 69c2 753d
00000080: 3adc 6d3d 1cf6 5d3d 964c b73c e146 083d
00000090: 3ae3 643d 0955 18bd d7f1 603c 9533 683d
000000a0: 968d 8d3c 38ab 823a 7f5f dcbc f966 ca3c
000000b0: b985 673c 7ef8 823d c2c2 f3ba c9f1 523d
000000c0: 9945 bd3c cbf3 ac3d b224 963c afe6 0c3a
000000d0: 0114 00be e030 76bc 73b2 063d aca1 333e
000000e0: 10a3 c7bc fd1c 603d f136 743d bb41 4d3c
000000f0: a3e8 f63d 0e4e 363d e535 9e3b e9a5 3e3e
00000100: e9d5 dcbc 4fe6 b5bd 4aa6 803d 24db 6d3d
00000110: 8a5a 36be 834d 3b3d 0388 83bc 1855 83bd
00000120: a9c9 543e 874f 173d 8015 3c3e 1a0c 433d
00000130: c817 f3bc aab3 e13b 3f9c 87bd 4aad 7dbc
00000140: b7cb 9bba 87b2 d8bc 04cc beba ff7b 6e3d
00000150: 2330 dd3c e12e 273d bd6f d33d 9c77 3dbb
00000160: 4024 44bc 8167 db3d bdcd 8dbc 457d 6bbd
00000170: 99a3 67bb 529f 423e e9b2 9c3d 9a58 ae3c
00000180: a9c8 623a 93e8 623d 8862 10bd d0c7 d53c
00000190: 1d51 7fbb ba72 013d 9312 d73c 8e47 113d
000001a0: b89d d33e a969 d23d 4c9c 0e3d dd81 3f3d
000001b0: 7a81 b93d 18b2 c43d b696 bb3c 1f3d d03c
000001c0: cb92 0d3d 8cc7 a8bc 488e 8b3c 8c98 dfbc
000001d0: f1dd ee3c 222b 49bc 7d3b 2e3d bfeb 343e
000001e0: a4e4 18bc b8f8 623d 0823 ed3c ffde 2cbd
000001f0: ac28 4f3d b1e7 07bd fdde be3c ac0d 963d
00000200: 790f cabb 2207 033e a648 ab3c 8535 043d
00000210: 8a7c 41bc 20bd 9abc d933 423c 8c2d 48bd
00000220: b2e7 8d3d dc2d 50bc 73fd 603d a120 653c
00000230: 915f 71bc d293 103d a7df ca3c 8141 773d
00000240: 3661 683e beb0 89bb 5cad 3fbc ce7c abbb
00000250: 6740 9ebd 29d4 0a3d c6f2 9f3c 58dc 1f3d
00000260: b2e4 f13c c090 a83c 1aa4 cb3b 176b d739
00000270: 5414 423b 4056 9a39 adc7 173c 5c04 e0bc
00000280: 52a7 be3c 829d 753d f5f1 85bb 991d 6e3c
00000290: 1815 873b 865f c03d 5570 cd3c 1cba b23c
000002a0: 0d42 10bd 2b83 9bbb 7ac2 ed3c ce9f 4b3c
000002b0: 250b 993d 4fcf 533c d66b 2e3d b8ee e5bc
000002c0: 8a86 a1bc 2241 77bc 1e29 9d3d d474 3f3c
000002d0: 2abf 063e 5c58 f83c 08be 1d3d cd84 743c
000002e0: 775f 903c c514 c83a 0528 823c 9138 2fbc
000002f0: 5ae6 d73d ce48 abbc 783a 1cbd fd42 abbc
00000300: 1cc1 c53c 5e6a 57b9 8d94 cfb7 a8ee f33c
00000310: 1828 4b3d be98 62bc 7fc2 62bd 2f52 be3d
00000320: 89d8 b33b 71cb ec3c 5638 ca3a fc78 5ebd
00000330: 8d1c 35bc 95b9 693d 199c ef3d 07c6 aebc
00000340: c89f dc3d a6bf 673d b2a5 823c 9290 353d
00000350: f8ea 253d d1a7 95bc 8638 f13c 7f1e 9fbc
00000360: 4185 0fb9 4189 1e3d 421b 053d bc26 103d
00000370: fa33 8ebc 4e7e ba3b ba4f 233d 5cca f23c
00000380: cd58 623d c2f3 cebc b048 ad3c f303 803c
00000390: 8261 383d 6d1e 3f3b 5b85 823b 3270 b1bd
000003a0: 2d76 63bc 54ff d7bc 8a64 6e3d 07e4 aa3c
000003b0: 89db 7ebd caad dbbb 6425 09bd fc15 9cbd
000003c0: 2ae5 703d 7457 c83c b125 103c e1e1 c6bc
000003d0: 87bb 67bc fe85 21bc 9071 143d aee3 933c
000003e0: a6f1 5ebd d130 52bb fc95 f53c e865 4c3d
000003f0: fd8c 17bc 7a54 62bc 4e8b 4a3c 7ff6 9b3b

fc2.bias f4 [2]
0.72596604 1.0013812
00000000: e9d8 393f 422d 803f
