MRSN/checkpoints/MRRN-3.pth (torch, 531417 bytes, 4 tensors)

fc1.weight f4 [128, 1032]
-0.07724373 -0.142157 -0.009671994 0.013705516 -0.097039275 -0.021889491 0.0060644713 -0.118883446
-0.06463969 -0.0700101 0.07519758 -0.03383106 -0.105291955 -0.04865037 0.029889861 -0.027306039
-0.076867 -0.09440362 -0.054767728 -0.0700319 -0.035834543 -0.11689018 -0.042026993 -0.07103604
-0.0521484 -0.07576832 -0.08547195 -0.03924166 -0.1278331 -0.1136449 0.042130552 0.08064935
-0.0055438885 -0.001897196 -0.10689869 -0.061380316 -0.072483405 -0.046264727 -0.06201147 -0.103854254
-0.0023268634 -0.05787941 -0.056118846 0.013144974 -0.08920557 0.01329146 -0.02864182 -0.038084634
0.032406043 -0.030101983 -0.053302076 -0.004576045 -0.08009622 -0.037300374 -0.070549294 -0.06578996
0.02481259 -0.14392143 0.024915753 -0.10380908 0.008489042 -0.13870393 -0.055533852 -0.013874043
-0.014194387 -0.08080791 -0.028725637 -0.039912637 -0.050330404 -0.069021635 -0.124603465 -0.07400696
-0.09100216 -0.07845125 -0.06808337 -0.07006051 -0.07394764 -0.019801354 0.010507253 0.010988703
-0.079494074 -0.13152857 -0.041104287 -0.04758736 -0.04739442 -0.123088546 -0.056399208 -0.06676893
-0.11779516 -0.012136808 -0.016051654 -0.018275267 0.027512757 -0.0021807034 -0.06889003 -0.045963462
-0.055410955 -0.032824844 -0.0342103 -0.0008818314 -0.010889946 -0.017307341 -0.076902114 -0.091139965
-0.10984147 -0.058238447 -0.07241519 0.012612808 0.07966083 -0.037067704 0.08639466 -0.06232083
-0.06997143 -0.036748447 0.059433304 0.011602622 -0.07212315 -0.10298569 -0.12411237 -0.073889226
-0.099578865 -0.043283418 0.01000405 -0.039556917 -0.10599389 -0.018589277 0.008578164 -0.022949662
-0.07140255 -0.09846783 -0.10023322 -0.039155442 0.019711994 -0.13154003 -0.045638647 -0.0041631768
-0.089212485 -0.054299004 -0.09035571 0.03704479 -0.12214179 -0.082718134 -0.074149825 0.046447754
-0.12062605 -0.07298083 -0.05101761 -0.10754706 -0.071252435 -0.08121848 -0.1115402 -0.030021949
-0.06743126 -0.04480707 -0.05704132 -0.080372386 -0.06065848 -0.11008148 -0.077440955 0.058714513
0.048437033 0.017253723 -0.08190748 -0.08525193 -0.06523034 -0.12511446 -0.047035884 -0.091643415
-0.085030794 0.036277372 -0.110002965 -0.058490988 0.032402437 -0.10404675 -0.004798348 0.04643549
-0.025872216 -0.00316581 0.0017560357 -0.07364186 -0.04408611 -0.0839747 0.0016741515 -0.06731485
-0.0556307 0.043384135 -0.117768854 -0.0049647433 -0.049676243 0.018576913 -0.14875439 -0.10711925
0.0055365427 0.014442381 -0.08163608 -0.025705988 0.027266726 -0.03267402 -0.05107466 -0.07424212
-0.06180414 -0.1339706 -0.07671446 -0.09234532 -0.06079462 -0.06771796 -0.12981987 -0.09874153
0.004149997 -0.071261995 -0.121158145 -0.12970203 -0.07928318 -0.122628376 -0.05493871 -0.0953134
-0.028772626 -0.09375842 -0.06837147 0.0072364155 0.041287024 -0.023453772 0.015793404 -0.10377809
-0.04080467 -0.051255967 0.0070259823 -0.01782069 -0.04648711 -0.05442539 -0.004788212 -0.09756688
-0.06639781 -0.12054788 -0.07100117 -0.052875888 0.019474892 0.07545354 -0.038733777 0.03602223
-0.09596433 -0.0593172 -0.059695065 0.047363862 -0.002873432 -0.057435 -0.08857253 -0.10163021
-0.07075632 -0.11517874 -0.14495456 0.008547345 -0.06354787 -0.06489086 -0.074276514 -0.057119835
00000000: f631 9ebd 9b91 11be 4877 1ebc 1a8d 603c
00000010: 87bc c6bd 9751 b3bc 79b8 c63b 2a79 f3bd
00000020: d061 84bd 7561 8fbd 3001 9a3d 7092 0abd
00000030: 4fa3 d7bd 9c45 47bd 95db f43c eab0 dfbc
00000040: 726c 9dbd af56 c1bd 2054 60bd e36c 8fbd
00000050: 3ec7 12bd 1e64 efbd 7f24 2cbd 587b 91bd
00000060: 9099 55bd 6c2c 9bbd eb0b afbd ddbb 20bd
00000070: aee6 02be a8be e8bd 1691 2c3d 7d2b a53d
00000080: 82a9 b5bb 56ab f8ba b3ed dabd ed69 7bbd
00000090: 2e72 94bd 1580 3dbd bdff 7dbd 8ab1 d4bd
000000a0: 4a7e 18bb f612 6dbd e0dc 65bd 045e 573c
000000b0: 69b1 b6bd 6dc4 593c 40a2 eabc a2fe 1bbd
000000c0: 33bc 043d 6f98 f6bc 4753 5abd a6f2 95bb
000000d0: 7d09 a4bd 47c8 18bd 267c 90bd e3bc 86bd
000000e0: c643 cb3c 2460 13be 1f1c cc3c db99 d4bd
000000f0: 9f15 0b3c 6708 0ebe 7777 63bd f44f 63bc
00000100: 938f 68bc 9e7e a5bd 0752 ebbc 6f7b 23bd
00000110: 4127 4ebd 375b 8dbd 1a30 ffbd f690 97bd
00000120: 575f babd 0dab a0bd 4b6f 8bbd e27b 8fbd
00000130: dc71 97bd 7336 a2bc 9d26 2c3c f609 343c
00000140: cacd a2bd 6daf 06be f85c 28bd f7ea 42bd
00000150: a720 42bd d915 fcbd db02 67bd 26be 88bd
00000160: 973e f1bd 76d9 46bc c27e 83bc 03b6 95bc
00000170: 6f62 e13c 22ea 0ebb 3716 8dbd 2f44 3cbd
00000180: 99f6 62bd 5873 06bd 1920 0cbd b42a 67ba
00000190: be6b 32bc 20c8 8dbc db7e 9dbd 97a7 babd
000001a0: 91f4 e0bd 708b 6ebd 6a4e 94bd f3a5 4e3c
000001b0: 3825 a33d 4ed4 17bd afef b03d 2044 7fbd
000001c0: 2e4d 8fbd 8a85 16bd 5670 733d ed18 3e3c
000001d0: 4db5 93bd 29ea d2bd a02e febd 3c53 97bd
000001e0: 01f0 cbbd f449 31bd 07e8 233c 6f06 22bd
000001f0: 5313 d9bd 8a48 98bc 6d8b 0c3c ee00 bcbc
00000200: 803b 92bd 80a9 c9bd 1347 cdbd 7561 20bd
00000210: 0c7b a13c 6eb2 06be 97ef 3abd 426b 88bb
00000220: 09b5 b6bd a268 5ebd 6a0c b9bd 47bc 173d
00000230: 7a25 fabd 2068 a9bd dddb 97bd 0040 3e3d
00000240: ca0a f7bd f976 95bd d7f7 50bd a241 dcbd
00000250: ccec 91bd e055 a6bd 306f e4bd 97f0 f5bc
00000260: 6719 8abd 9e87 37bd 29a4 69bd 479a a4bd
00000270: 0775 78bd 6672 e1bd 5d99 9ebd a17e 703d
00000280: e965 463d ae57 8d3c 1cbf a7bd 9098 aebd
00000290: 7c97 85bd 011e 00be b3a8 40bd 8baf bbbd
000002a0: a024 aebd 9597 143d 3c49 e1bd 3f94 6fbd
000002b0: 6bb8 043d 7616 d5bd 763b 9dbb 2433 3e3d
000002c0: f8f1 d3bc 7a79 4fbb c82a e63a 8bd1 96bd
000002d0: a393 34bd edfa abbd 346f db3a 5edc 89bd
000002e0: 04dd 63bd 90b3 313d cc30 f1bd 49af a2bb
000002f0: 5179 4bbd 9c2e 983c 1253 18be 5661 dbbd
00000300: e36b b53b bd9f 6c3c d130 a7bd 5d95 d2bc
00000310: 785e df3c 31d5 05bd aa33 51bd 410c 98bd
00000320: 5726 7dbd 972f 09be 791c 9dbd 8b1f bdbd
00000330: c803 79bd b7af 8abd 80ef 04be 0039 cabd
00000340: b3fc 873b cff1 91bd c321 f8bd 9cd0 04be
00000350: 385f a2bd 9624 fbbd 6a07 61bd ac33 c3bd
00000360: 92b4 ebbc 6a04 c0bd 5706 8cbd 741f ed3b
00000370: 951c 293d 2022 c0bc 2b61 813c 9b89 d4bd
00000380: cc22 27bd c7f1 51bd 363a e63b b2fc 91bc
00000390: 4569 3ebd 28ed 5ebd 6fe6 9cbb 25d1 c7bd
000003a0: 93fb 87bd cfe1 f6bd 1069 91bd 6394 58bd
000003b0: cf89 9f3c 6387 9a3d 4fa7 1ebd 0c8c 133d
000003c0: f288 c4bd 98f6 72bd d082 74bd 9c00 423d
000003d0: 3050 3cbb f640 6bbd 8465 b5bd 8023 d0bd
000003e0: b1e8 90bd d5e2 ebbd f86e 14be 2a0a 0c3c
000003f0: 6325 82bd 80e5 84bd 491e 98bd 7df6 69bd

fc1.bias f4 [128]
-0.043183915 0.24521151 -0.11725081 -0.051509794 0.026675008 0.12857904 -0.049388207 0.09899447
0.18665977 -0.106324226 0.013384908 -0.05680287 -0.08824663 -0.12560645 0.022824077 0.22954085
-0.053573716 0.07788439 0.050240308 0.17603712 -0.0055903355 -0.034342512 -0.04185823 0.03777519
-0.06429625 -0.06999736 -0.02868186 0.17169516 0.06996913 0.0020889894 -0.10766412 0.28756374
0.010043882 -0.045113254 -0.010962736 -0.08189695 -0.07897361 -0.09010627 0.12898137 -0.03411012
-0.06804693 -0.07981032 0.027989764 -0.044324093 -0.06917485 0.11399535 -0.08122159 -0.06293726
0.314958 -0.08299959 -0.04536316 0.49770132 0.14470255 0.022165548 -0.05485833 -0.030446377
0.26375005 0.16628559 0.07245184 0.12149869 0.23230432 0.045715597 0.1461329 -0.05540414
-0.04993792 0.16875345 -0.047247738 0.16940358 -0.081810854 -0.033576965 -0.08761315 0.03778248
-0.056304622 -0.063079245 -0.0550354 -0.0458548 0.09322291 -0.062614635 0.047574297 0.12036412
0.32713175 0.21242265 -0.05917315 -0.049684152 -0.08978702 -0.033222504 -0.05825217 -0.07139813
0.26690638 0.24636737 -0.07293905 -0.052121222 0.3601121 -0.05347957 -0.074091345 -0.07847252
-0.047625974 0.05661082 -0.027137136 -0.062253885 -0.19086996 0.2691978 -0.011486593 -0.040657263
-0.07419253 0.25786632 -0.0696461 -0.079027474 0.31109428 -0.092585914 -0.054308996 0.46287492
-0.051085062 0.1828293 0.3640821 -0.07267848 -0.01581681 -0.06684065 -0.064644374 0.15912786
-0.08084508 -0.08822014 -0.053550877 -0.13081326 0.21697554 0.22511145 -0.01621195 0.24475841
00000000: 9ee1 30bd ba18 7b3e 3121 f0bd effb 52bd
00000010: 8c85 da3c 39aa 033e 4a4b 4abd 9dbd ca3d
00000020: bd23 3f3e 84c0 d9bd 604c 5b3c 20aa 68bd
00000030: a6ba b4bd fa9e 00be 8ff9 ba3c c20c 6b3e
00000040: 1d70 5bbd da81 9f3d c8c8 4d3d 1343 343e
00000050: 222f b7bb bcaa 0cbd 8973 2bbd 28ba 1a3d
00000060: c1ad 83bd c75a 8fbd 38f6 eabc dbd0 2f3e
00000070: fa4b 8f3d 6de7 083b 027f dcbd 8e3b 933e
00000080: 188f 243c adc8 38bd 0c9d 33bc 97b9 a7bd
00000090: ebbc a1bd a389 b8bd b113 043e 0eb7 0bbd
000000a0: 305c 8bbd 9873 a3bd ca4a e53c 2e8d 35bd
000000b0: 8bab 8dbd 6576 e93d 8157 a6bd 40e5 80bd
000000c0: 2d42 a13e b0fb a9bd b9ce 39bd b5d2 fe3e
000000d0: e82c 143e 8694 b53c 21b3 60bd ae6a f9bc
000000e0: 3f0a 873e c546 2a3e a161 943d 4ed4 f83d
000000f0: 2fe1 6d3e 4740 3b3d dda3 153e 74ef 62bd
00000100: b48b 4cbd b4cd 2c3e d886 41bd 2278 2d3e
00000110: 738c a7bd 0088 09bd 866e b3bd cdc1 1a3d
00000120: ad9f 66bd b12f 81bd cd6c 61bd 3ed2 3bbd
00000130: a7eb be3d 1a3c 80bd 44dd 423d 7781 f63d
00000140: d07d a73e 5385 593e 8c5f 72bd 9c81 4bbd
00000150: 42e2 b7bd 5214 08bd d499 6ebd 2f39 92bd
00000160: f4a7 883e ba47 7c3e 1261 95bd 107d 55bd
00000170: 9d60 b83e 650d 5bbd 34bd 97bd 33b6 a0bd
00000180: 7413 43bd bfe0 673d b34e debc eefd 7ebd
00000190: 6a73 43be 4bd4 893e 4332 3cbc 3b88 26bd
000001a0: 41f2 97bd 0e07 843e 9da2 8ebd 28d9 a1bd
000001b0: c047 9f3e af9d bdbd 1c73 5ebd f1fd ec3e
000001c0: 923e 51bd 9b37 3b3e f868 ba3e 74d8 94bd
000001d0: 4192 81bc c0e3 88bd 4564 84bd 6af2 223e
000001e0: 1b92 a5bd c3ac b4bd 2a58 5bbd e9f3 05be
000001f0: d62e 5e3e 9e83 663e ecce 84bc f3a1 7a3e

fc2.weight f4 [2, 128]
0.0019667915 0.029148353 -0.18267733 0.019700056 -0.033087987 0.12328166 0.023814233 0.075006634
0.046436146 0.013772556 0.12693554 0.023141704 0.0021732002 -0.1647674 0.020459712 -0.010152718
0.0044894693 0.027136592 0.19458264 -0.27423507 -0.07112766 0.036119048 0.06389144 0.15642883
0.023534782 0.030918993 0.025751283 0.023772074 0.0706049 0.07942041 0.060503807 0.013905437
0.1143407 0.03693979 0.3869432 -0.02345912 0.007915174 0.06829144 0.09225225 0.0012682772
0.022987362 -0.017168527 -0.038567115 0.051085357 -0.022205459 0.11631976 -0.017656604 -0.06008723
0.103139155 0.05835725 -0.027686398 0.43097463 0.038694404 -0.014567055 -0.0031455222 0.03332378
0.027884305 0.047345996 0.13788171 0.07241256 0.016444897 0.1802549 0.046193335 0.030804088
0.03037205 0.09419242 -0.019889722 0.030193005 -0.013655253 0.01522708 0.0023001165 0.20283924
0.03629053 0.004816273 0.016749721 0.036264118 -0.07404762 0.09644973 0.092360646 0.07086446
0.25417328 0.036384888 0.0058217747 -0.009440596 -0.0008920594 -0.005656418 0.0031211702 0.030225474
0.033639163 0.033202145 0.021506453 -0.0042515807 0.16702919 0.03552171 -0.015046426 -0.008650041
-0.011151461 0.03524664 -0.00689095 -0.022794161 -0.11414909 0.15857483 0.026708702 0.051353116
0.01449167 0.054359816 -0.04159222 -0.02830168 0.3395657 -0.009891273 0.0384461 0.08502477
-0.039616786 0.06687637 0.053880095 0.0049209907 0.0008562922 -0.021702021 -0.027177095 0.030836105
-0.011281146 0.038058862 0.019028386 0.042713597 0.025204968 0.03400749 0.04056356 0.19628747
0.0005055107 0.00036337753 0.01861402 0.07801382 0.06032401 -0.08487819 -0.07429788 0.032594264
0.0037215168 -0.027541358 -0.05522186 0.021354184 0.047316454 -0.026402429 0.019016495 0.12579948
-0.034704454 -0.0020204128 -0.042585727 0.12656231 0.072783545 0.0065482543 -0.005163873 -0.036597546
0.010621232 0.029495172 -0.0023793809 0.0032519354 -0.0023221935 0.064850725 -0.0009674469 0.01228248
-0.028677888 0.049454477 -0.0015452023 0.062544145 0.039123442 -0.0044413037 -0.021541985 0.0010831391
-0.020592125 0.061348747 0.07752642 0.050996806 -0.0013134889 -0.00814458 0.090002604 -0.00590859
0.00056397624 0.012867683 0.07534503 0.021495655 0.0073045474 0.03599127 0.011723087 0.016964467
0.008750086 -0.005047989 -0.054744154 -0.053381674 0.00980669 -0.04883423 -0.007989028 -0.0014520616
0.011193976 0.14745575 0.013147977 -0.0011999797 0.10039657 -0.03336181 0.025783425 -0.01888046
0.048831258 0.015924279 0.011348832 0.08027957 0.094883755 -0.015653815 -0.022320142 0.035499346
0.00040881307 0.0016887109 0.124477014 -0.00505425 0.004680987 -0.004412373 0.033785842 -0.017738512
0.013067966 0.0028861556 0.0054901633 -0.015891455 0.01497076 -0.019673564 0.060478352 -0.01657368
-0.0056015737 -0.09196989 0.09399484 0.014454514 -0.018085502 -0.011400198 -0.0061664274 -0.017950686
0.06829084 -0.0038449536 0.029136933 -0.01493596 0.028413145 0.0381172 -0.04345223 0.11752074
0.012228581 -0.012013315 0.046326783 -0.017326009 0.012874688 0.031135032 0.09101466 -0.0017986933
0.08658697 0.07514119 0.028534666 -0.002658391 0.008770825 0.0050119366 -0.011353154 -0.009933822
00000000: 49e5 003b 87c8 ee3c c40f 3bbe 0362 a13c
00000010: 4587 07bd 187b fc3d 1116 c33c 149d 993d
00000020: d433 3e3d 49a6 613c 64fb 013e ac93 bd3c
00000030: 406c 0e3b c9b8 28be 209b a73c 9657 26bc
00000040: 661c 933b 8f4d de3c ac40 473e 8a68 8cbe
00000050: 61ab 91bd 91f1 133d 84d9 823d e12e 203e
00000060: 04cc c03c d449 fd3c 5bf4 d23c a7bd c23c
00000070: 4d99 903d 2ba7 a23d d7d2 773d a1d3 633c
00000080: 752b ea3d 2d4e 173d 6b1d c63e 572d c0bc
00000090: a5ae 013c 62dc 8b3d bfee bc3d 523c a63a
000000a0: fe4f bc3c 03a5 8cbc 8df8 1dbd e13e 513d
000000b0: 39e8 b5bc 0e39 ee3d 95a4 90bc 071e 76bd
000000c0: 9f3a d33d 0308 6f3d 96ce e2bc b5a8 dc3e
000000d0: 067e 1e3d a8aa 6ebc 1b25 4ebb 847e 083d
000000e0: a06d e43c e0ed 413d dd30 0d3e 094d 943d
000000f0: 73b7 863c be94 383e 3935 3d3d db58 fc3c
00000100: cece f83c f5e7 c03d c5ef a2bc 5257 f73c
00000110: 48ba 5fbc 017b 793c 8dbd 163b 17b5 4f3e
00000120: 61a5 143d d4d1 9d3b b636 893c af89 143d
00000130: 47a6 97bd 7087 c53d 9427 bd3d 6321 913d
00000140: 0023 823e 5208 153d 96c4 be3b bbac 1abc
00000150: 18d9 69ba 7959 b9bb 8c8c 4c3b 6a9b f73c
00000160: 38c9 093d f9fe 073d 4d2e b03c d850 8bbb
00000170: b309 2b3e 367f 113d 4985 76bc e7b8 0dbc
00000180: 9eb4 36bc c85e 103d 7acd e1bb d2ba babc
00000190: 00c7 e9bd 7161 223e 35cc da3c a557 523d
000001a0: 786e 6d3c 66a8 5e3d 9b5c 2abd edd8 e7bc
000001b0: 8edb ad3e 020f 22bc a879 1d3d 7721 ae3d
000001c0: 3645 22bd 7af6 883d 60b1 5c3d 4340 a13b
000001d0: cc78 603a 70c8 b1bc 80a2 debc 009c fc3c
000001e0: 8ed4 38bc 9ce3 1b3d 6be1 9b3c 74f4 2e3d
000001f0: a67a ce3c 704b 0b3d fa25 263d 95ff 483e
00000200: 4084 043a b583 be39 6e7c 983c b6c5 9f3d
00000210: 4f16 773d 9ed4 adbd 7d29 98bd 9081 053d
00000220: b1e4 733b 6a9e e1bc 5130 62bd f8ee ae3c
00000230: e6ce 413d e849 d8bc 7bc8 9b3c 94d1 003e
00000240: 4226 0ebd e768 04bb 5f6e 2ebd 8d99 013e
00000250: 8a0f 953d bd92 d63b b535 a9bb 4fe7 15bd
00000260: ad04 2e3c dc9f f13c 63ef 1bbb 6c1e 553b
00000270: f12f 18bb 75d0 843d 439c 7dba 743c 493c
00000280: e4ed eabc c790 4a3d 6388 caba 2517 803d
00000290: e73f 203d 5b88 91bb d178 b0bc 1ef8 8d3a
000002a0: d1b0 a8bc d348 7b3d 2cc6 9e3d 07e2 503d
000002b0: 6029 acba d870 05bc 4953 b83d d89c c1bb
000002c0: ced7 133a f9d2 523c 7f4e 9a3d a817 b03c
000002d0: fc5a ef3b 956b 133d 3112 403c 11f9 8a3c
000002e0: 855c 0f3c 9a69 a5bb 683b 60bd bea6 5abd
000002f0: 3dac 203c 6706 48bd 69e4 02bc 1a53 beba
00000300: f066 373c a4fe 163e 9d6a 573c a348 9dba
00000310: b89c cd3d 65a6 08bd c337 d33c 32ab 9abc
00000320: 4903 483d a273 823c 74f0 393c 9d69 a43d
00000330: 6a52 c23d 6e3c 80bc bbd8 b6bc c367 113d
00000340: f655 d639 bc57 dd3a ceed fe3d 1f9e a5bb
00000350: f762 993b ab95 90bb 0663 0a3d 5b50 91bc
00000360: 061b 563c a825 3d3b d4e6 b33b cc2e 82bc
00000370: eb47 753c 742a a1bc 26b8 773d 87c5 87bc
00000380: 688d b7bb b65a bcbd 5e80 c03d a0d2 6c3c
00000390: 0c28 94bc e5c7 3abc be0f cabb 510d 93bc
000003a0: 11dc 8b3d 9efb 7bbb 94b0 ee3c f5b5 74bc
000003b0: afc2 e83c c820 1c3d f7fa 31bd b7ae f03d
000003c0: 635a 483c 7fd3 44bc 27c1 3d3d 46ef 8dbc
000003d0: 5bf0 523c e50e ff3c e565 ba3d 22c2 ebba
000003e0: 8254 b13d a0e3 993d 88c1 e93c 6638 2ebb
000003f0: 82b3 0f3c 2c3b a43b 9402 3abc 78c1 22bc

fc2.bias f4 [2]
0.72795403 1.3807203
00000000: 325b 3a3f 71bb b03f
